models/ae_full_model.pt (torch, 107393 bytes, 12 tensors)

encoder.0.weight f4 [64, 160]
000000 ec b2 2e 3d ec cc 7d bd 58 72 68 3d 8d cd 68 3d
       0.042651102 -0.061963007 0.05674967 0.056836654
000010 99 64 1a bd d2 af ac 3d 76 32 a1 3d 60 67 14 3d
       -0.037693594 0.084319726 0.07870953 0.0362314
000020 a3 a9 94 3d fe 2a 12 bd 8d c5 d5 3d c8 e9 ca bd
       0.07258918 -0.03568553 0.104380704 -0.099078715
000030 4e 44 98 bd 80 f7 5b 3e e3 cc 7b be fb d6 65 3d
       -0.07434903 0.21481133 -0.24589877 0.056113224
000040 05 e9 6b bc 05 92 d4 bc 6e c8 d6 3d 01 fb 8a 3d
       -0.014398818 -0.025948534 0.10487448 0.067861564
000050 54 07 b0 3d ec 17 c2 3c ff 46 97 3b 3a 3c 07 3d
       0.08595148 0.023693047 0.0046166177 0.03301642
000060 85 24 70 be d1 80 4c 3d 1a bd f1 3c 13 31 22 bd
       -0.23451431 0.049927536 0.029509116 -0.039597582
000070 23 40 df bd 22 e2 89 3e 2f 47 36 3d 92 9f 23 3d
       -0.10900905 0.26930338 0.04450148 0.0399471
000080 a2 cc ad bd cd 4f 21 be cd fb af 3d 93 a6 e3 3d
       -0.08486296 -0.15753098 0.08592949 0.11115756
000090 31 0f 3e 3d cb 91 01 bd 44 43 36 3e d6 a0 91 bd
       0.046401206 -0.03163318 0.17799097 -0.07110755
0000a0 84 34 3a bd 5f 11 36 bc 27 a4 63 3d 8f d7 04 3e
       -0.04546024 -0.01111254 0.05557647 0.12972854
0000b0 d1 49 48 be 09 1f 81 3c 79 24 87 bd 03 6d 8b 3d
       -0.19559409 0.015761869 -0.065987535 0.06807902
0000c0 52 28 4c 3e 4a fb f3 bd 34 70 a5 bd 26 70 92 bb
       0.19937256 -0.11913164 -0.08078042 -0.0044689355
0000d0 a2 e0 b0 3d 94 47 10 bd ae 61 17 bb f0 59 dd bc
       0.08636595 -0.035224512 -0.0023098993 -0.027020425
0000e0 fb 8d 0b 3d 7d e4 0c bd 16 11 27 3d 44 3a 29 3d
       0.03407095 -0.03439759 0.04078778 0.041315332
0000f0 83 9c 18 be 26 a8 65 bd 87 7a 3e 3d 7b 47 71 be
       -0.14903454 -0.056068562 0.04650357 -0.23562424
000100 07 e4 c9 be 06 2b 66 3d aa 13 53 3c df 78 75 3d
       -0.39431784 0.056193374 0.012883106 0.059929725
000110 a6 c2 b3 3d f0 8f 2e be 9b 76 21 3d 04 88 b9 bc
       0.087773606 -0.17047095 0.03941975 -0.022647865
000120 ca 63 bd 3d a1 8c 08 3d dc 6c 32 3e 9d 30 e0 3e
       0.09247549 0.03333724 0.17424339 0.4378709
000130 55 f9 d1 3c 4f 58 17 be 09 ed 2a 3e 8c c0 67 3e
       0.025631586 -0.14779781 0.16691984 0.22632045
000140 32 ab 55 ba cf a0 51 bc 44 03 f4 bc b5 91 0b bb
       -0.0008150815 -0.012794687 -0.029786713 -0.0021296565
000150 b1 7d 9b 3d ec cc 03 ba b3 26 bc bd 54 97 85 3d
       0.07592333 -0.0005027789 -0.09187069 0.06523004
000160 32 38 88 3d e1 58 f4 be 1f 3c 1a 3c 57 7c ee 3b
       0.066513434 -0.4772406 0.009413748 0.007278006
000170 1d ce aa 3d 53 62 9d bd 47 f5 0e 3e 56 76 5d 3d
       0.08340094 -0.076847695 0.13960753 0.054067932
000180 08 09 ca 3c e1 b7 a6 3d 66 81 a9 3d cf a3 cd 3d
       0.02466251 0.08140541 0.08276634 0.1004101
000190 37 17 00 3c 97 03 81 bc c6 a2 b2 bd 51 0b 0d bd
       0.007818035 -0.015748782 -0.08722453 -0.03443462
0001a0 39 31 0a be 81 4c bb 3d 6b 2a a7 3d 7e 11 52 bd
       -0.1349534 0.09145451 0.081623875 -0.051286213
0001b0 13 c7 73 be 06 c6 16 bd 53 1c e4 3b b2 21 73 3d
       -0.2380641 -0.036809944 0.0069613843 0.059358306
0001c0 81 d0 9c 3d 89 8e 49 3e c7 ce 85 3d 8c 66 87 bc
       0.076569565 0.19683279 0.0653358 -0.01652839
0001d0 49 0f 31 3d 3f 0d a0 3b 15 65 94 bd 73 f1 05 3e
       0.043227468 0.0048843916 -0.07245842 0.13080387
0001e0 04 0d 5d bc 3d 4e 02 3d bb d9 6f 3d 64 2c 62 be
       -0.013491873 0.031812895 0.058557253 -0.22087246
0001f0 de 9d 4f be 3c aa 60 3d 1d c0 75 3d 4b 7a cc 3d
       -0.20275065 0.05484985 0.059997667 0.09984263
000200 96 92 d1 bc 7f 5a 86 be f1 6f 4c 38 9d 36 a4 bd
       -0.025582593 -0.26240918 4.8741644e-05 -0.08018229
000210 ca 36 3a 3d b9 52 8a 3e 46 05 b0 bd 83 77 7a bc
       0.045462407 0.27016237 -0.08594756 -0.015287283
000220 cb ad 29 3d 84 65 76 bd 63 70 97 bd dc 17 cf 3d
       0.041425508 -0.060155407 -0.07394483 0.10111973
000230 b7 99 89 bc a4 99 eb bc 6c c2 f7 3c 24 59 1d be
       -0.01679693 -0.028759785 0.030244075 -0.15366036
000240 5c 44 90 bc df ab 6f bb 32 60 0e 3d 29 d6 15 3b
       -0.017610721 -0.003657095 0.034759708 0.0022863245
000250 59 0b bc bc 40 c0 75 bd b3 dc b4 3d 15 17 7a ba
       -0.02295463 -0.059997797 0.088311575 -0.00095401827
000260 ba bb d7 3d a4 36 8b 3d d5 c7 d5 bd f0 8a c9 bc
       0.10533853 0.06797531 -0.104385056 -0.024602383
000270 1a d5 87 bd 05 2d b9 bd 45 da 88 3d cf 2b c6 bd
       -0.06632443 -0.0904179 0.066822566 -0.096763246
000280 21 96 81 3d 66 ea 2c bd ca a1 51 3d c8 0e 19 bd
       0.06327463 -0.042215727 0.051179685 -0.037367612
000290 63 ce 0b bd 50 e3 26 bd 54 fa 38 bd 07 24 19 3d
       -0.034132373 -0.040744126 -0.045160607 0.037387874
0002a0 70 f0 07 3d e1 7d 7f bd 65 5a 63 bd 93 b2 a1 3d
       0.033188283 -0.062375907 -0.05550613 0.078953885
0002b0 9c 11 18 3d 24 bb e5 bc 54 e6 3c bd b3 54 24 bd
       0.03712617 -0.028043337 -0.046118096 -0.040119838
0002c0 9f ca 23 3d 5e 52 3c 3d 0e 6c 83 3d eb 06 be bc
       0.039988156 0.04597699 0.06417094 -0.023196658
0002d0 83 79 51 3d 06 67 17 bd 33 49 8c bc 8e b1 ed bc
       0.051141273 -0.036963485 -0.017124748 -0.029015329
0002e0 4b 09 56 b9 a4 58 34 3d e4 77 7d bd d2 09 a0 3d
       -0.00020412092 0.044029847 -0.061881915 0.07814373
0002f0 b3 19 9e 3d 80 92 49 bc 5c e5 1e bc f0 09 bc 3c
       0.077197455 -0.012302995 -0.009698238 0.022953957
000300 dc ef db 3c 3e 38 7b 3d 27 c3 a3 ba 0e db 31 3d
       0.026847772 0.061332934 -0.0012494073 0.043421797
000310 7e 5f 8c bd f1 fb 0a 3d 07 36 0f 3d 39 89 8f bd
       -0.06854151 0.033931676 0.034963634 -0.07008595
000320 85 8e 19 3d 2a 94 40 3d c4 3e 9e bb 66 67 73 ba
       0.037489433 0.0470163 -0.0048292596 -0.0009285122
000330 78 7a 17 3d 77 d1 85 3d bb 1a 9e bd 1f 37 d8 bb
       0.03698203 0.06534093 -0.07719942 -0.006598368
000340 26 7f 34 3d 7d 7e e5 3c 6d 75 42 3d 9c c5 48 3d
       0.04406657 0.028014416 0.047475267 0.04901658
000350 53 6a 83 bd 0a 6e 6b 3d 9e 56 14 3d 6c f3 90 3d
       -0.06416764 0.05747799 0.036215417 0.07077679
000360 9c a7 88 bc fa 54 b3 bc 30 fb 8d bd 01 1f 1a bd
       -0.016681485 -0.021891106 -0.06932676 -0.037627224
000370 25 af 64 3d 40 75 4b 3d f3 30 af 3c 80 13 45 3d
       0.055831093 0.049672365 0.021385645 0.0481143
000380 92 d5 dc 3b 6c cd 2d bc 54 51 03 3d 59 af 4a 3c
       0.0067393268 -0.010608058 0.032059982 0.012370908
000390 57 32 fc 3b 9d 06 8e 3d 6f 13 62 3c b9 6e 04 3c
       0.0076964307 0.06934855 0.013798579 0.008083039
0003a0 b6 0b 7a 3d 12 49 fd bb 15 e3 6c bc b5 13 94 bd
       0.061046325 -0.007729658 -0.014458437 -0.07230321
0003b0 1a 72 01 bc be ac 09 bd 45 8a 63 bd 8f 5c b0 bc
       -0.007900739 -0.033612005 -0.055551786 -0.02152851
0003c0 42 be aa bd 3b a4 8f 3d 31 0e 32 bc 1c 56 b5 bc
       -0.0833707 0.07013746 -0.010867641 -0.022135787
0003d0 22 5e fd bc d4 b5 8d 3b 89 d8 47 bd c4 cc 0a bd
       -0.030928675 0.004324654 -0.04879049 -0.033886686
0003e0 ab e3 92 3b c9 ba 6c 3c 87 84 c1 bb 4f 63 fb 3c
       0.0044827065 0.01444883 -0.005905691 0.030687002
0003f0 f2 a3 2a bd 4a c1 90 bd d9 8f 82 bd ec f7 6f bd
       -0.041660257 -0.07068117 -0.06375093 -0.058586046

encoder.0.bias f4 [64]
000000 63 5e b9 bc 41 13 52 bd 35 54 9c 3d f9 8c a1 3c
       -0.022628015 -0.051287893 0.07633249 0.019720541
000010 a3 7b f3 bd c3 c6 14 3d 6d 79 1b be 52 58 95 bd
       -0.11888816 0.036322366 -0.15183039 -0.072922364
000020 e6 ce 34 be 91 46 bc bd a1 08 37 3d 65 2a 90 bd
       -0.1765705 -0.09193147 0.044685964 -0.07039336
000030 37 1f a4 bd de 24 3c 3d ac 60 cd 3d 90 68 36 3d
       -0.08013766 0.045933597 0.10028204 0.044533312
000040 3d 82 69 3c 3f d8 3c bd f6 81 c3 3c 03 ac 81 be
       0.014252243 -0.046104666 0.023865681 -0.25326547
000050 dd 31 6a bc 86 0b 4b be 0b c1 4e 3d b2 5c cf 3d
       -0.014294115 -0.19828615 0.05047707 0.10125102
000060 36 e1 1c 3d cf f0 8f bd 39 52 9a bd 8d 85 34 bd
       0.038300715 -0.070283525 -0.07535214 -0.044072676
000070 04 dc de bc fe b6 b4 3d a7 96 53 3b 12 60 47 3d
       -0.027204521 0.088239655 0.003228584 0.048675604
000080 8f a8 44 3d 0d d2 69 bd 30 b7 b7 bd 28 1b 86 bd
       0.048012313 -0.057085086 -0.08970487 -0.065481484
000090 f7 ac 08 bd 65 e2 e5 3c fe b1 8f bd 37 47 73 3d
       -0.033368077 0.028062055 -0.07016371 0.059394088
0000a0 78 3c 1d be 9b 4d 41 be f9 d0 98 bd 85 29 a1 bd
       -0.15355098 -0.1887726 -0.07461733 -0.07869247
0000b0 76 f7 3c 3d 8a 2c 4f 3c e6 1f 4d be f3 d6 14 3d
       0.046134435 0.012644896 -0.200317 0.036337804
0000c0 07 26 a0 3d 6f 78 79 bd 3c 44 15 3c bd ba 2f be
       0.07819753 -0.06090587 0.009110507 -0.17161079
0000d0 a3 7a c8 bd 9a 3c f9 bc df 0e 01 be 5d 1e 4e 3d
       -0.09789016 -0.030424405 -0.12603329 0.050321925
0000e0 7c c5 12 3d 33 e2 d4 bd 61 bf 5e 3c f3 1e d6 3d
       0.035832867 -0.103947066 0.013595433 0.10455122
0000f0 9e a3 ee bd 0e 54 ad bd 87 3d d9 bd 08 7c 23 bd
       -0.11652301 -0.08463298 -0.106074385 -0.039913207

encoder.2.weight f4 [32, 64]
000000 e8 0e a4 bd f3 a6 20 3d 57 33 a4 bd ad 86 5a bd
       -0.08010656 0.039221715 -0.08017605 -0.053351093
000010 9d 54 9e bc 9e f8 68 bd 90 7d 82 3d b2 e1 4f be
       -0.019327456 -0.056877725 0.063716054 -0.2030094
000020 e6 00 1c bd cd 0e ac bd 8f ae f0 bd 0c f4 e1 bd
       -0.038086794 -0.084012605 -0.117520444 -0.11032876
000030 dc 12 f7 3b 72 28 72 bd 42 b0 1d be f3 05 be bc
       0.00754009 -0.059120603 -0.15399268 -0.023196196
000040 de ca 09 3d 14 01 34 be 50 ff b8 3d cc 8e 33 3d
       0.033640735 -0.17578536 0.09033072 0.043837354
000050 ee b4 70 3d b5 5a be bd 35 d2 f7 bd 96 98 46 bd
       0.058766298 -0.09294645 -0.12100641 -0.04848536
000060 3e 95 d9 bd 8e bc 39 be e2 06 ca 3d a8 ac 6f 3d
       -0.10624169 -0.18138334 0.09864594 0.058514267
000070 e8 9f 44 be a4 93 a2 bd 48 96 0e 3b a0 6b 5d 3b
       -0.19201624 -0.079383165 0.0021757055 0.0033786073
000080 8b 18 82 bd 89 98 2b bd a6 93 86 3c a0 f2 96 3b
       -0.063523374 -0.041893516 0.016427826 0.00460656
000090 bd 5a cd bd b0 ba 6e 3d 0d a3 73 3d 47 c6 d5 bd
       -0.100270726 0.058283508 0.05948167 -0.10438209
0000a0 d3 d0 0a be a5 3e 0e 3d 40 34 5b bd 93 b1 b5 3d
       -0.13556223 0.03472771 -0.053516626 0.0887176
0000b0 7b a5 a5 bc 4a 58 d8 3b d5 98 aa bd 9c a7 8a bd
       -0.020220509 0.0066023218 -0.08329932 -0.0677025
0000c0 00 85 94 bd 9b 38 da 3d 22 c4 93 3d 0d 05 bc bd
       -0.0725193 0.10655328 0.07215144 -0.09180651
0000d0 28 f3 80 be 30 7b 26 bd 28 98 2b bd 3d 2a c2 bd
       -0.25185513 -0.040644825 -0.041893154 -0.094807126
0000e0 61 08 9d bd d4 5c 08 be 2d 23 3b bd fc f3 b0 bd
       -0.07667614 -0.13316661 -0.045687843 -0.08640286
0000f0 8a 53 f1 bc 48 84 54 3d 48 8d 21 be 10 eb bb bc
       -0.02945878 0.051883966 -0.15776551 -0.022939235
000100 82 ce 0b 3d e2 78 9a 3d 01 bd 41 be 20 d2 19 3d
       0.034132488 0.07542588 -0.18919756 0.037553906
000110 f4 aa 29 be 3d f8 81 bd bf 90 08 be 46 a5 42 be
       -0.1656912 -0.06346176 -0.13336466 -0.1900836
000120 f4 45 e4 bd fc 54 44 bd 28 75 95 bd 28 1a da 3d
       -0.11146155 -0.04793261 -0.072977364 0.1064952
000130 06 52 9b 3d e8 30 aa 3d 2d 07 04 be 3e 5c 03 3d
       0.07584004 0.083101094 -0.12893362 0.03207039
000140 60 29 d2 bd 09 f1 71 bd 00 d3 55 3d 80 5d 25 be
       -0.10261798 -0.05906776 0.05220318 -0.16148949
000150 bb 27 4a bd 2b 77 62 bd 88 a0 4b 3d ec 1c 0b 3c
       -0.049354296 -0.05528943 0.04971364 0.008490782
000160 80 4b 1c bd d5 b2 05 be d2 b0 c9 3d 80 0f 82 ba
       -0.03815794 -0.130565 0.09848179 -0.0009922832
000170 e2 b2 e1 bd a2 9a 1b 3d d1 3b 75 be 8e 68 2c be
       -0.11020447 0.037989266 -0.239486 -0.1683676
000180 ae 3b b6 bd 67 07 23 be d8 1d d7 bd c8 c8 e8 bc
       -0.08898102 -0.15920793 -0.10503739 -0.028416052
000190 24 fc a5 bd 40 5f af 3c 34 dd 20 bd f0 f7 4e bc
       -0.08104733 0.021407723 -0.039273456 -0.012632355
0001a0 b7 9e 51 3d df 71 b1 bd 08 87 99 3c 26 95 97 bd
       0.051176753 -0.08664297 0.018741146 -0.07401495
0001b0 70 3f 77 3c ec 56 d2 bd 3d e2 3a bd b4 0d e9 bc
       0.015090808 -0.10270485 -0.045625914 -0.028448917
0001c0 c3 c0 0a be f0 85 5a 3c 8b bc 0e be ea 8e 5b bd
       -0.13550095 0.013337597 -0.13939111 -0.05360309
0001d0 d1 c5 c7 bd 00 55 dd 3d f4 08 12 be 30 1d 88 bd
       -0.09754527 0.10807228 -0.14261228 -0.06646192
0001e0 a2 51 83 3d 7f a8 b8 3d fa af 90 3d 96 67 f5 bd
       0.064120546 0.09016513 0.07064815 -0.11982648
0001f0 68 a3 7f 3d 4f 8f 3f 3d 52 10 ce 3c e0 50 3b be
       0.062411696 0.04676753 0.025154267 -0.1829257
000200 45 4c 8d bd fc e8 19 3d d1 b7 7e 39 54 4b 06 be
       -0.06899313 0.037575707 0.00024291805 -0.13114673
000210 ab c1 3d bd b4 46 d2 3d c6 a5 e9 3d 03 23 86 3c
       -0.046327274 0.10267392 0.11408572 0.016374117
000220 a6 2e 22 3d 18 f6 fe 3d 5c 81 e0 bd d5 33 be 3c
       0.03959527 0.124492824 -0.10962173 0.023218075
000230 4c d5 49 3d 75 53 6c bc 8d e3 8c bd c8 69 97 3e
       0.04927568 -0.014424195 -0.06879339 0.29572892
000240 f4 55 5f 3c 19 bc 75 3c 5c 69 60 3d 19 4a 47 3c
       0.013631333 0.014998459 0.05478798 0.012163662
000250 f4 f4 2d bd 1d 66 cb 3d 6b cf 82 bd 70 d1 66 3e
       -0.042469934 0.09931586 -0.06387218 0.22540832
000260 e7 56 14 be f1 97 25 3d 6a 44 58 bd 3e 4d 83 3d
       -0.14486276 0.040428106 -0.05279962 0.06411217
000270 57 bc b5 39 42 2e 19 be a9 97 22 3e 01 fa 9f 3e
       0.00034663334 -0.14959052 0.15878166 0.31245425
000280 c9 96 73 3d 64 78 6e 3d 28 46 e2 bd 88 4f a5 bb
       0.05946997 0.058220282 -0.110485375 -0.0050448813
000290 a4 45 85 bd 27 14 a9 bb 74 08 e1 bc c3 f2 88 3d
       -0.065074235 -0.005159873 -0.027469851 0.06686928
0002a0 7b 20 3c bd 0e e7 27 bd b4 34 93 bc 20 3b 9f 3d
       -0.045929413 -0.040991835 -0.017969467 0.07774949
0002b0 1e cd ba bd 85 73 11 3e c4 8c 28 3e 8b 40 b8 3b
       -0.09121154 0.14204223 0.16459948 0.0056229285
0002c0 1f b2 06 bc a3 9d b9 bc 14 9f 9b bb 7f 62 39 3d
       -0.008221178 -0.022658175 -0.004749188 0.04525995
0002d0 1f 42 90 3d 30 54 aa 3c 4a 84 b5 3c bf e0 26 3a
       0.070438616 0.020792097 0.022157807 0.0006365887
0002e0 04 21 e7 bd 47 6f 09 3e e1 36 1e bd 5e 6e dd 3c
       -0.11285594 0.13421355 -0.038626555 0.027030166
0002f0 0e f3 97 3d b0 03 bb 3c f9 7f 15 3e df d3 38 3d
       0.07419406 0.022828907 0.14599599 0.04512393
000300 03 32 c4 bd 4f b9 69 bd 42 4c de bc fc fa 2b 3c
       -0.095798515 -0.05706149 -0.027135972 0.010496851
000310 86 98 d6 bb 66 fe 74 3d 0d 8c ec 3b 23 0d b4 bd
       -0.006548944 0.059812926 0.007218844 -0.08791568
000320 69 57 32 bd ed f5 46 bd 9f d4 ec 3d be 55 02 bd
       -0.043540392 -0.048574377 0.11563992 -0.03182005
000330 c2 72 ca bd ac 99 1d 3c b1 5b 9f 3e f0 61 8a 3d
       -0.098851696 0.009619158 0.31124642 0.06756961
000340 ba 17 44 bd 2f 65 a2 bd 50 ab 5b bc fe df 70 3d
       -0.04787419 -0.079294555 -0.013407543 0.058807366
000350 db 42 60 3e 30 47 ea bc e3 8e df 3a 6c f0 0d be
       0.21900503 -0.028598398 0.0017056133 -0.13861245
000360 38 46 e0 3d 7e b1 f5 3d d3 18 da 3d 27 10 2f bd
       0.10950893 0.119967446 0.10649266 -0.042740013
000370 e4 86 4c 3d b3 63 28 3e 77 47 32 3b 48 3b 8c 3e
       0.04993333 0.16444282 0.002720324 0.27388978
000380 8f 9c 7e bd cf 45 63 be d4 4c 94 bc af 8a 5c bc
       -0.062161025 -0.22194599 -0.01810304 -0.013460799
000390 e4 4a cb bc 79 64 12 bc a0 65 c1 3d 13 65 ea 3d
       -0.024815984 -0.008935087 0.094432116 0.114450596
0003a0 23 f8 f7 3d 07 e2 c8 bc 0f 14 3a bd 3a 17 01 bd
       0.12107875 -0.02452184 -0.045429286 -0.03151629
0003b0 ae 4e dd 3d d2 bc 4d 3d 5f 40 96 3c 83 cb b8 bd
       0.108060226 0.0502289 0.018341241 -0.09023192
0003c0 4e 52 22 3c 9b a0 92 bd e7 ad 5d bc b9 69 a1 bb
       0.009907318 -0.07159539 -0.013530231 -0.004925933
0003d0 36 20 59 bd f0 c5 92 3c 01 0d 12 3e 2d 03 52 bd
       -0.053009234 0.01791665 0.14262773 -0.05127256
0003e0 fb 8c 87 3c a8 f9 df 3c ec 83 0f 3d 30 8c 67 bd
       0.016546717 0.027340725 0.03503792 -0.056530178
0003f0 41 73 61 3d d5 5c 4b bc c1 d6 37 3d 43 1b 0b bd
       0.055041555 -0.01241227 0.04488254 -0.033961546

encoder.2.bias f4 [32]
000000 fb 54 82 be cd 73 41 be b3 79 e6 3a 74 ac 61 bd
       -0.2545546 -0.1889183 0.0017583877 -0.055096105
000010 1b cf cf 3d d0 f6 de bc ca 53 5f bd 2f 04 71 3e
       0.10146924 -0.027217299 -0.054523267 0.23536752
000020 24 0e 03 bd 10 05 01 be a7 f8 7d 3d d6 d3 14 bd
       -0.031995907 -0.12599587 0.06200471 -0.036334835
000030 24 2e 38 3e 62 e4 98 bd 63 04 dd bd 05 2e b4 bc
       0.17986351 -0.074654356 -0.10791852 -0.0219946
000040 78 7e c5 3b f8 ac 49 3b fd df ac be 92 22 a2 bd
       0.006027039 0.0030773263 -0.3376464 -0.0791675
000050 12 2c df bd b0 cd b1 3d 6c 05 cc 3d b8 73 45 be
       -0.108970776 0.0868181 0.09961972 -0.19282424
000060 35 e4 9b bd 08 8a 8d be df 2f 06 be bd a6 88 bd
       -0.076118864 -0.27644372 -0.13104199 -0.06672428
000070 78 17 0b bd 58 9d 2b be 38 6c c9 3d b0 a4 8d 3b
       -0.03395793 -0.1675924 0.09835094 0.004322611

encoder.4.weight f4 [16, 32]
000000 64 9b 3d 3e fc d9 84 3c cb 99 cc 3d 9c 19 14 bd
       0.18516308 0.016217224 0.09990271 -0.036157236
000010 f9 9f 03 be 60 96 9c bd f9 b6 92 bd 1d 91 f0 3d
       -0.12853993 -0.07645869 -0.071638055 0.11746428
000020 eb 7a 0f 3e b7 03 1a 3e 3e 4f 84 be fc 23 e7 bc
       0.14011733 0.1504048 -0.25841707 -0.0282154
000030 0b 06 b1 bd 99 f1 ab 3d 3f 87 67 bc be ae 94 bd
       -0.08643731 0.083956905 -0.014131366 -0.07259892
000040 a7 5b 8a bd 24 7c ea bd 97 a4 b6 3d 1b df 0a bc
       -0.067557625 -0.11449459 0.08918112 -0.008476044
000050 27 72 97 bb 1e 9f 20 be 7e b2 9a bd 38 17 98 bd
       -0.0046217623 -0.15685698 -0.07553576 -0.074263036
000060 d1 55 92 be 13 c0 10 be e0 e3 b4 bb 0b b6 e3 3c
       -0.28581098 -0.1413577 -0.005520329 0.027796766
000070 1b f6 81 3e 42 28 b3 bd 2d b1 ae 3d db a5 28 be
       0.25383076 -0.08747913 0.08529887 -0.16469519
000080 93 2f 06 bd 84 78 34 bd 26 58 2b bd a3 60 1d 3a
       -0.032760214 -0.044060245 -0.04183211 0.00060034747
000090 7b 3c 85 3c cc 84 f8 3d e5 99 87 bd 23 87 f5 bc
       0.01626419 0.12134704 -0.0662115 -0.029971665
0000a0 87 69 7f be 92 04 57 3d 2d ba 85 3d 8b b4 2c bd
       -0.24942599 0.052494593 0.06529651 -0.042164367
0000b0 1b a8 ae 3d 21 bc 1b 3d 30 bb de bd 34 ab 3f 3e
       0.08528157 0.03802121 -0.10875547 0.18717653
0000c0 9e 95 90 3d c5 c4 a5 3c 04 e0 31 3d db 18 56 3d
       0.07059787 0.020235429 0.04342653 0.052269798
0000d0 c2 1b 64 3e 26 fb 1a 3d 44 a3 3c bc da ec 0a 3c
       0.22276214 0.03783717 -0.011513535 0.008479321
0000e0 7c 10 6a bd 93 2a 70 3d ee 17 f0 bc 73 82 71 bd
       -0.057144627 0.058634352 -0.029308286 -0.058962297
0000f0 95 f7 36 3d 88 10 f8 3d 65 64 f3 bc 66 2f 7b bd
       0.044669706 0.12112528 -0.029710958 -0.0613245
000100 99 66 8d 3c a8 4d 14 bb 07 02 e1 3b 04 11 1d bd
       0.017260836 -0.0022629295 0.0068666968 -0.038346305
000110 32 27 43 3c 69 f2 19 be 76 5e 9c bd cd b6 62 3b
       0.0119112 -0.15033878 -0.076352045 0.003459382
000120 47 05 35 bd 4d b1 a2 bc 22 b2 20 bd e1 27 93 bc
       -0.044194486 -0.019859934 -0.03923238 -0.017963352
000130 ad 71 1d bb e1 e4 36 bc a7 d0 25 3c 8a 9b 5d bd
       -0.0024024055 -0.011162967 0.010120547 -0.05410341
000140 77 a7 13 be 36 2e 0d 3d 81 96 a3 bd 8e fd d6 bd
       -0.14419352 0.0344679 -0.07987691 -0.104975805
000150 7d 0c 96 3c 03 c7 44 3a 0b d9 86 3c 87 ba 6c 3c
       0.018316502 0.00075064617 0.016460916 0.014448768
000160 a6 c5 7a bd 77 2a 9e 3c e3 6d be 3b 54 95 f8 3d
       -0.06122365 0.019307358 0.0058114394 0.12137857
000170 2f 84 ec bc 8a b3 42 be 9f 83 e5 b9 97 7f 1b 3d
       -0.028871624 -0.19013801 -0.0004377635 0.037963476
000180 3d 9a e5 3d 4e fb 81 bd 43 16 94 3e 3f a7 a7 bd
       0.11211059 -0.06346761 0.28923234 -0.081861965
000190 7c 1f 03 be db 49 4a 3d f9 62 1a 3d 9c 7d 81 3e
       -0.12804979 0.04938684 0.037692044 0.25291145
0001a0 88 f1 44 bd 06 26 87 bd 3b ae 7d 3e ef 4f e4 3d
       -0.048081905 -0.06599049 0.24773495 0.111480586
0001b0 c1 03 f9 3b d5 73 96 be 76 85 e7 3d 71 ec cd 3d
       0.0075993245 -0.29385248 0.113047525 0.10054863
0001c0 57 5f 3f bd 0f 1e 21 be 9e 1d 3d bd 51 b5 d8 3d
       -0.046721783 -0.15734123 -0.046170823 0.10581458
0001d0 5b 88 f6 bd fb 8b 25 3d 10 c7 37 be ce 0c 00 be
       -0.120377265 0.0404167 -0.1794703 -0.12504885
0001e0 3a 14 96 bd 53 ae 9d bd a2 6e 8e 3c b4 08 2b 3d
       -0.07328077 -0.07699265 0.017386738 0.041756347
0001f0 14 a8 0b 3e 37 66 22 3e ff c1 5a bd 44 64 92 3b
       0.13638335 0.15859304 -0.053407665 0.004467519
000200 fd f6 3c 3d e5 dd 71 bd 6b 15 5b be 4e 79 4d 3e
       0.046133984 -0.059049506 -0.21394889 0.20065805
000210 6a 22 b1 3d 94 53 e3 bd 92 1a d3 3c d8 63 b8 3e
       0.08649142 -0.11099926 0.025769506 0.36013675
000220 f0 19 17 bd fc 43 5c 3d 48 f3 a6 bc 10 11 d3 3c
       -0.03688997 0.053775772 -0.020379677 0.025764972
000230 8c 75 16 be 5f af 6b 3e 8e bf da 3b 20 73 31 be
       -0.14693278 0.23016118 0.006675667 -0.17329073
000240 d2 53 03 bd a5 7f 06 be bc 68 bb bd 56 53 ef 3c
       -0.03206236 -0.1313463 -0.09150836 0.029214542
000250 b9 3b a8 be 74 b1 9e bd fd 68 c2 bb 21 01 1d be
       -0.32858065 -0.0774869 -0.0059329257 -0.15332462
000260 e8 45 81 bd 98 bb 68 3d c4 61 38 bd d5 d6 33 3d
       -0.06312162 0.05681953 -0.04501511 0.04390605
000270 c7 d4 b0 bd b4 de ba 3c 94 12 53 bd b7 13 fc 3d
       -0.08634334 0.022811271 -0.05153139 0.12308448
000280 64 d8 55 3d e4 d8 cf bc 4c 35 7a 3d 38 34 41 3e
       0.05220832 -0.025371976 0.061085984 0.18867576
000290 09 4b 13 be 72 12 08 bc f6 93 2c 3b 3e db dc bd
       -0.14384092 -0.008305179 0.0026333309 -0.10784005
0002a0 ff 62 10 be 80 c1 aa 3d 22 39 1c be f6 08 b8 3d
       -0.14100264 0.083376884 -0.1525617 0.08986084
0002b0 4b 43 7b 3e f3 0e a9 bd 13 c0 4d 3c 2b 84 24 3c
       0.24537389 -0.082548045 0.012558001 0.010041277
0002c0 03 7f a4 3d 2d d9 b8 3d 90 92 d9 3b 2d b0 24 3d
       0.08032038 0.09025798 0.006639786 0.040207077
0002d0 86 73 10 be 18 92 b3 bd 34 28 10 bd 40 45 28 bd
       -0.14106569 -0.087680995 -0.03519459 -0.041081667
0002e0 03 74 01 3e a0 ae 02 be b8 50 26 3e dc c0 82 3d
       0.12641911 -0.12761927 0.1624173 0.06384441
0002f0 b9 8e 78 bd b4 9b da 3d ba bf b2 3e 3d d8 48 3d
       -0.060682986 0.10674229 0.349119 0.049034346
000300 b8 6a cb bd e2 aa 5f 3e 7e 9d a9 bc 05 00 df bb
       -0.09932464 0.2184253 -0.020704981 -0.0068054223
000310 b6 5a 43 3a bf 25 08 bd 3c c3 5a bb 17 86 06 bd
       0.00074521767 -0.033239122 -0.003338053 -0.03284272
000320 66 41 03 3e f9 8c e2 bd 3f e2 77 3d b6 f8 ec 3d
       0.12817916 -0.11062045 0.0605185 0.11570875
000330 2c e8 c4 3d a7 24 db 3c cf 45 41 bd 86 ed 36 be
       0.09614596 0.026750876 -0.047185715 -0.17864046
000340 6a 64 0f be ac 32 c1 3d a0 2a ed 3b 85 b5 2e 3e
       -0.14003149 0.09433493 0.0072377473 0.17061432
000350 1b b7 e5 3b 02 be e9 bd c9 25 4e bc 24 72 7c 3c
       0.0070103533 -0.11413194 -0.012582251 0.015408073
000360 14 25 be 3e 10 68 51 3d 2e de b8 bd 78 71 b7 bd
       0.37137663 0.051124632 -0.090267524 -0.08957189
000370 47 9d 15 3d 29 15 c7 bd a9 da 46 bd da 7f d7 bc
       0.036526944 -0.09720833 -0.048548374 -0.026306082
000380 a5 ed 46 bc 9e 3d 97 bd 52 75 ae 3d 51 9b 10 be
       -0.01214162 -0.073847994 0.08518471 -0.14121749
000390 82 1e a6 3c f1 23 14 3e 82 ad 57 3d ad 3c da 3c
       0.02027822 0.14466836 0.052655704 0.02664026
0003a0 9e 7d 98 bd 64 bd f1 3d 6d 6c 00 be 18 b5 3c bd
       -0.074458346 0.118037015 -0.12541361 -0.046071142
0003b0 f3 9d 0d 3e bd 34 58 3d 7b 21 0d 3e 0b 26 ee 3d
       0.13829784 0.05278467 0.13782303 0.1162835
0003c0 e0 b9 a4 3d 49 12 c9 bd ba 59 84 bd ea 8a 12 3d
       0.08043265 -0.09817941 -0.064624265 0.03577701
0003d0 33 a9 c7 bd 78 6c 0c bd 4a 01 e8 bd 81 cc a2 be
       -0.09749069 -0.03428313 -0.11328371 -0.3179665
0003e0 bb 08 14 be aa 7c 97 3c 08 6c c7 bd 73 7c f6 bc
       -0.14456455 0.018492062 -0.09737402 -0.030088639
0003f0 30 db c6 bd f0 b4 1d bd 94 90 21 be 7e 00 4b 3e
       -0.097097754 -0.038502634 -0.15777808 0.19824407

encoder.4.bias f4 [16]
000000 15 57 25 be 01 13 05 be 1e 88 4a 3e 00 54 79 be
       -0.161465 -0.1299553 0.19778487 -0.2434845
000010 b9 21 b4 be 9c bf 82 be fc 8f 96 bd 7f f5 24 3f
       -0.35181978 -0.2553681 -0.073516816 0.644371
000020 5a 9f 95 be 6c 47 35 3e 45 00 75 be 88 bf a5 be
       -0.29223138 0.17703027 -0.23925884 -0.3237269
000030 ba e3 a1 3e 10 59 ac 3d fd c3 1d 3e c8 72 7d 3c
       0.31619054 0.08415425 0.15406795 0.0154692605

decoder.0.weight f4 [32, 16]
000000 c8 4d 05 3d f8 e2 0a 3e 2b 83 2c 3e 1b 56 8c bd
       0.03254488 0.13563144 0.16846912 -0.06852361
000010 c2 5c 30 bd 30 82 ba bd fc d7 8b bc 8c 60 14 3e
       -0.04305721 -0.091068625 -0.017070763 0.14489955
000020 e9 48 a2 bc a8 05 3c 3e dc 8a b8 bd 82 54 22 bd
       -0.019810157 0.18361533 -0.0901086 -0.039631374
000030 bf f2 d8 3d fb e7 b0 bc 55 f5 1d be 99 b4 1e be
       0.10593175 -0.021594992 -0.15425618 -0.1549858
000040 2f 31 68 be 04 b0 aa 3d 7c dd 64 3e 57 8f c3 bd
       -0.22675012 0.083343536 0.22350115 -0.09548824
000050 78 b9 22 be 4b 39 af be dc dd 25 be 74 6e 6e 3e
       -0.15891063 -0.342234 -0.16197914 0.23284322
000060 97 bc 88 3d 3b 58 21 3e 45 81 85 be ca 3f f2 bd
       0.06676596 0.15756314 -0.26075187 -0.11828573
000070 25 b2 42 3e 4e e9 d0 3d 1b de f5 bc 8a 0b c7 3d
       0.19013269 0.10200749 -0.030013135 0.09718998
000080 bd 4e 1b bd 76 55 59 bd a9 78 5b 3c ec 6f 8b bc
       -0.037916888 -0.053060018 0.013395467 -0.017021142
000090 f4 0e c3 3d 0e 46 f2 3d 44 00 86 bc a3 f0 b5 3d
       0.095243365 0.11829768 -0.016357549 0.088837884
0000a0 e1 3b 36 be 9e eb 49 3d d6 7d 3a 3e 24 2f 66 3e
       -0.1779628 0.049296968 0.18212065 0.2247892
0000b0 32 af 0d bd 16 7f 27 3c e2 da a2 bd 6d 7d 91 3d
       -0.034590907 0.010223171 -0.07951905 0.07104001
0000c0 20 d0 1e be c4 62 b9 3d b3 d4 0f bd 27 91 02 be
       -0.15509081 0.09052041 -0.035114955 -0.12750684
0000d0 85 e6 47 bd c3 92 e6 be 3e e1 22 3c 03 36 c3 3d
       -0.048803825 -0.45033845 0.009941397 0.09531786
0000e0 b6 18 cd bd e5 23 8b 3d 28 f2 b9 bd 27 45 1a 3d
       -0.10014479 0.06793956 -0.09079391 0.037663605
0000f0 75 94 cd bc cc ce 88 bd 86 1e af 3d e0 98 4a 3e
       -0.025095204 -0.066800684 0.08550744 0.1978488
000100 04 d8 8f 3d 1d 77 fa bc f4 b6 51 bd f1 7b c9 3d
       0.070236236 -0.030574376 -0.05119987 0.09838093
000110 fe b0 8c bd ab cd 86 3d b0 23 16 3b c0 ae 69 3e
       -0.06869696 0.06582197 0.0022909455 0.22820568
000120 50 4b 40 3e aa 23 b0 bd 5b 70 35 bd 69 7f a4 be
       0.1877873 -0.086005524 -0.044296604 -0.32128456
000130 2f db f4 3d 6f 6f e9 3c c0 2d 0e ba 6b 38 dc bd
       0.119558685 0.028495518 -0.00054236874 -0.107529484
000140 78 a5 65 be af 9c 27 3d 1a 72 62 3e 3c bb 37 be
       -0.22426403 0.04092091 0.22113839 -0.17942518
000150 6b 03 64 be 73 28 2b bd d5 3b d7 3d 67 53 34 3e
       -0.22266929 -0.041786622 0.10509459 0.1760994
000160 65 f9 56 3d 98 96 8b 3e d0 cc 84 be ca 43 9e bd
       0.052483935 0.2726333 -0.2593751 -0.077277735
000170 b4 b7 96 3d db ac 05 3e 9a 40 6c be 50 d2 10 3d
       0.07359257 0.1305422 -0.23071519 0.03535682
000180 15 23 c0 bc 29 af 89 3d 6a 98 dd bc 82 7e 5e be
       -0.023454228 0.06722862 -0.027050216 -0.21727946
000190 97 22 9b bb 2d 88 f8 bd ee 37 6e 3e 16 5a 9e 3e
       -0.004734348 -0.121353485 0.23263523 0.30928105
0001a0 5e 4d 2c 3e 2b 40 61 3e 3b 54 cb bd 55 58 17 3c
       0.16826388 0.21997134 -0.09928175 0.009237369
0001b0 5d 6e ef 3d b7 50 60 bc aa 68 cf bd c9 7d ab bd
       0.11690972 -0.013691119 -0.10127385 -0.08373601
0001c0 b3 9a 0e 3d 0a 2e 9b 3b 2c e2 8a bd cb 54 1d 3d
       0.0348155 0.004735713 -0.0678142 0.038410943
0001d0 1e f8 5c 3c df da cd be 06 2c a2 bc 10 af b0 3c
       0.01348689 -0.40206048 -0.019796383 0.021567851
0001e0 db 48 d7 3d 8a c0 a7 be 13 5d cb be 98 95 36 3c
       0.10511943 -0.32764083 -0.39719447 0.011144064
0001f0 33 04 91 3e b8 7c 48 3d 25 9e 0f be a5 62 5e bd
       0.28323516 0.048947066 -0.14025171 -0.054293294
000200 70 b1 41 3d 5a 59 8f 3c 32 c0 0e bd 51 85 72 3d
       0.04728836 0.01749866 -0.03485126 0.05920917
000210 b0 df dd 3d 0e 22 09 3e ab f4 04 bd 24 03 2a be
       0.10833681 0.13391897 -0.032459896 -0.1660276
000220 ba f1 04 3d e3 26 d6 bd a1 55 70 3d 51 1c 8e 3c
       0.03245709 -0.10456636 0.058675412 0.017347487
000230 de ba d8 3d 6b b9 29 3c dd ab 3d be 40 45 04 3e
       0.10582517 0.0103591485 -0.18522592 0.12917042
000240 49 a9 ab bd b6 92 0c 3c 03 55 7c 3d 9a fb f3 3c
       -0.08381898 0.0085799005 0.06160451 0.029783059
000250 f8 50 08 be 45 d3 a3 bd 47 4c 37 bd ff cf bd be
       -0.13312137 -0.07999281 -0.044750478 -0.3707275
000260 54 06 bb bd 10 59 a1 bd 53 82 48 3e 81 49 13 3e
       -0.09132066 -0.078783154 0.19580965 0.14383508
000270 cc 67 ac bd f4 fc ba bc 80 1f ce 3d 13 46 11 be
       -0.08418235 -0.022825696 0.10064602 -0.14186887
000280 c6 72 de bd f2 69 75 3c 3c fd 89 3c 41 ee 60 bd
       -0.10861735 0.014978873 0.016844384 -0.054914717
000290 c0 8e 20 bd 43 1b c8 bc 76 4c 00 bb 16 e8 30 3e
       -0.039198637 -0.024427062 -0.0019576824 0.17276034
0002a0 42 50 93 3e db 3b c2 3d 1b bc 83 be 8a 20 ad 3e
       0.2877217 0.09484073 -0.2572945 0.33813888
0002b0 1f 9d 76 3e c8 e1 fb 3c 16 dd a8 3e 64 41 be bc
       0.24083374 0.03074731 0.32981175 -0.02322454
0002c0 45 3b 78 bd 20 d0 72 bc dd 56 af bd 35 c0 b4 bd
       -0.0606034 -0.014820129 -0.0856149 -0.08825723
0002d0 6d d7 83 3c 69 31 3c bd 86 14 5e 3d de 6a 9f be
       0.016093934 -0.04594556 0.05421879 -0.3113622
0002e0 3a 7f ac 3d b0 82 82 bd 6d 7e 27 3e a2 25 78 3e
       0.08422704 -0.06372583 0.16356821 0.24233106
0002f0 d7 db 34 3d 5e 21 5e 3c 3b 35 13 ba 8d ee 0d bd
       0.044154968 0.01355776 -0.0005615537 -0.034651328
000300 d5 aa 11 3e 40 fd 67 3b 11 88 47 3d d3 56 2d 3e
       0.14225323 0.0035398751 0.048713747 0.16927652
000310 1a 9d 72 3e a0 ad c0 3c cf d1 e7 bc 68 d7 ba bd
       0.23692742 0.02352029 -0.028298287 -0.09123117
000320 88 ce 88 3b b2 ce f2 bd 36 07 cd 3d 80 18 82 3d
       0.004175011 -0.1185583 0.10011141 0.06352329
000330 ee bb 24 3d f7 52 3e b9 94 6d 13 3e 5e ad a1 3d
       0.040218286 -0.00018150719 0.1439727 0.07894395
000340 8d 10 4c 3b 0e 1d 35 bd 19 bd ad 3b c1 1b 2e 3d
       0.0031137795 -0.04421716 0.005302083 0.042506937
000350 8a c5 9b bc 62 1d ae be 27 d4 29 bd fa cf 70 3e
       -0.019015092 -0.34006792 -0.04146209 0.23516837
000360 56 b8 80 3d 33 76 b5 be e6 d3 04 3e 93 47 aa bd
       0.06285159 -0.3544174 0.12971458 -0.08314433
000370 ea 4b f7 bd 3f 76 3f 3d 7a 5d 2a be a0 63 81 be
       -0.12075026 0.046743628 -0.16637221 -0.2527132
000380 c3 cc bf bd fa e4 08 bd 52 c2 59 3e 3a 76 53 be
       -0.09365227 -0.033421494 0.21265534 -0.20650569
000390 4e 98 da bc 5c f5 9b bd d1 00 a1 bc e5 bc 7a 3e
       -0.026683953 -0.07615158 -0.01965371 0.2448612
0003a0 51 82 1c 3e 99 ec b7 bd 04 12 78 bd 0d 56 93 3e
       0.15284087 -0.08980674 -0.060564056 0.2877659
0003b0 39 54 a5 3e ff 64 9d 3c 3c 28 06 be 34 26 c8 3c
       0.3229082 0.019213198 -0.13101286 0.02443228
0003c0 52 fd 89 bd 45 1e 4f 3d bd 30 83 bd 0b 3a 84 3e
       -0.0673777 0.050565977 -0.064057805 0.25825533
0003d0 9d dc 2e 3d c6 60 9c 3d c4 47 aa 3d 9b 43 5d bd
       0.042690862 0.076356456 0.083144695 -0.05401955
0003e0 c8 c0 97 bc 8c 63 0b bc 17 44 99 3d 9b a3 fb 3c
       -0.018524542 -0.008507621 0.0748369 0.030717662
0003f0 8e 1a ab be 65 87 8c 3c 3b 0f 26 3d 9c 70 09 bd
       -0.33418697 0.017154405 0.04054187 -0.03355466

decoder.0.bias f4 [32]
000000 76 bf 67 be 60 0e f5 be c0 d8 87 bd 44 e5 8a 3c
       -0.2263163 -0.4786253 -0.06633139 0.016955025
000010 f0 14 dd be 99 e4 fe be e2 1f 01 bf 0f d0 bc 3d
       -0.43180037 -0.4978378 -0.50439274 0.092193715
000020 a3 25 d3 3e 88 bd db 3d 77 58 1a bf 4e b8 3a 3e
       0.41239652 0.107295096 -0.60291237 0.18234369
000030 c8 ba 02 3f 8b d3 06 bf 95 92 af 3d a6 b3 c8 3e
       0.51066256 -0.5266654 0.0857288 0.3919956
000040 a0 7e ee be 97 53 2b 3d 7f 10 26 be 9d 49 89 bd
       -0.46580982 0.041827764 -0.1621723 -0.06703494
000050 26 8d 09 be 0f 12 9b bb 26 a1 9d 3e 92 ff 72 3d
       -0.1343275 -0.0047323774 0.3078701 0.059325762
000060 87 59 d6 3d c9 d7 09 3f 28 60 c6 3c e9 45 44 be
       0.10466295 0.53844887 0.024215773 -0.19167294
000070 6e 9a 2e be ef f1 1b be 0b 9f 3e be 57 a6 ff be
       -0.17051098 -0.15229009 -0.18615358 -0.49931595

decoder.2.weight f4 [64, 32]
000000 58 fb 9a be a8 47 73 bd 39 49 34 be b3 7e 44 3d
       -0.30269885 -0.05939451 -0.17606057 0.047972392
000010 7b 04 73 3c e5 bf 7b 3e eb 9e 1d 3e 0b 87 d5 bd
       0.014832611 0.2458492 0.15392654 -0.10426148
000020 c3 de 2f be 03 9a 19 3d 5d 64 37 3d 4a be c4 bc
       -0.1717482 0.037500393 0.04477345 -0.024016518
000030 38 b0 70 be ad 2f 41 bd d6 e2 08 bd b5 61 c8 bc
       -0.23504722 -0.047164608 -0.033419453 -0.024460653
000040 78 46 3e 3d fc 65 e0 bd e6 d9 c8 3d d8 70 81 3b
       0.046453923 -0.10956952 0.09807186 0.0039502196
000050 a2 fe 5a 3c 7a 54 1e 3d 61 47 a5 bd 63 35 19 be
       0.013366373 0.038654782 -0.08070255 -0.14961772
000060 89 7e 37 bd 75 81 43 be 04 7a 5f be f0 af 90 bc
       -0.044798408 -0.19092353 -0.21823889 -0.017662019
000070 c8 d3 0c 3c 6e a5 f1 bc 67 c1 21 bd c7 d9 21 3e
       0.008595414 -0.029497828 -0.039491083 0.15805732
000080 b1 2d d7 bc 03 88 42 3e 2f e9 22 be 67 15 e4 bd
       -0.026266905 0.18997197 -0.15909265 -0.11136895
000090 ce 74 a9 be 07 3d 87 3c cc 55 1f bd be 51 00 bf
       -0.33096927 0.016508592 -0.03890018 -0.5012473
0000a0 aa 31 45 be 37 eb 01 be e1 dc 15 bd 0b 48 ec bd
       -0.19257227 -0.12687384 -0.0365876 -0.115371786
0000b0 27 81 3d be 7d 9a 15 3d 03 26 9a 3e a1 55 8f bd
       -0.18506299 0.036524285 0.30107126 -0.06998754
0000c0 8b 65 55 be 72 72 f2 3c 59 55 bf bd ea b2 9c bd
       -0.20839517 0.029595587 -0.09342451 -0.07651313
0000d0 3f d7 bf 3d dc df 4f be 35 3d 87 bd fb fd ec bc
       0.09367227 -0.2030024 -0.06603471 -0.028929701
0000e0 e3 d9 ff bd 7f ee 07 3d 74 82 50 3c f5 a5 6e be
       -0.124927305 0.033186432 0.012726415 -0.23305495
0000f0 9c 87 85 bd 6d 78 48 3d 04 ef 4c bd ab fa c0 3e
       -0.06520006 0.048942972 -0.05003263 0.37691244
000100 8b 89 c7 bd 06 d9 6f bd f5 ae 0a 3e 68 56 5d 3d
       -0.09743031 -0.05855658 0.13543303 0.05403748
000110 38 49 4f bd 48 64 39 3d 0d 7d 00 be 72 01 49 3d
       -0.050606936 0.04526165 -0.12547703 0.049073644
000120 cf 31 4f be 9c 73 04 be de 69 ea 3c 13 f3 64 be
       -0.20233844 -0.12934726 0.028614935 -0.2235835
000130 ba a2 24 be 62 68 01 be ad 28 78 3d eb c2 5a be
       -0.160777 -0.12637475 0.060585666 -0.21363418
000140 0c 2d 7e be 05 59 f9 bd a0 36 76 3c 39 3c 32 be
       -0.24821872 -0.12175182 0.015027672 -0.17405786
000150 b0 9b ea 3d e8 1d 3f be 56 bf a4 bd 13 46 24 bd
       0.11455476 -0.18663752 -0.08044307 -0.04010589
000160 60 4e b7 3d 89 15 89 bc 26 3a a1 3d e7 67 46 3d
       0.08950496 -0.016733902 0.07872419 0.048438933
000170 d9 d5 40 be ad ff e6 3d ad 29 5c 3b 8f ce 16 be
       -0.18831576 0.11279235 0.0033594177 -0.14727233
000180 46 c3 e1 3c b9 d4 89 bd 29 00 91 bb 7b eb 85 3c
       0.027558934 -0.06730027 -0.004425068 0.016347637
000190 62 8b 6b bd ea 6e 11 be ac 78 9e be ef c8 f1 3c
       -0.057505973 -0.14202467 -0.3095144 0.029514758
0001a0 3a e5 bd 3d 0f 97 95 3c 8b 57 12 3e fb a5 87 bc
       0.09272237 0.018260507 0.14291207 -0.016558638
0001b0 a5 91 6d be a8 bf fa bd 31 91 06 be 81 ab ed bc
       -0.2320009 -0.12243587 -0.13141324 -0.029012443
0001c0 5f c5 0f bb 1b 66 98 bd 68 be 2a 3e 5c 9c 50 bd
       -0.002193771 -0.0744135 0.16674197 -0.050930366
0001d0 72 40 1d 3e 82 6c 8a 3d c7 4b ab bb ae e0 53 bd
       0.15356615 0.067589775 -0.005227539 -0.051727943
0001e0 50 79 59 bd 25 ed fb 3c c6 f0 51 3c 8a c5 dd 3d
       -0.05309421 0.030752728 0.0128137525 0.10828693
0001f0 30 b9 8c bd 4f a6 48 3d 13 c0 97 bd 02 b4 fe 3c
       -0.06871259 0.04898673 -0.07409682 0.031091694
000200 e4 90 37 3b 99 2b fb 3d 26 23 43 3f 64 a3 b9 3d
       0.0028009946 0.12264175 0.7622551 0.090643674
000210 6f d2 3b be 44 fd 88 bb d8 c4 0d 3d 44 d9 d2 be
       -0.18341993 -0.0041805822 0.034611553 -0.41181386
000220 15 54 69 be 18 43 02 3e 52 d6 21 be fa 74 9b bd
       -0.22785981 0.12720907 -0.15804413 -0.07590671
000230 5e 6b 03 be c1 52 97 3d 5f 33 27 3d 99 8a 8b 3e
       -0.12833926 0.07388831 0.040820476 0.2725418
000240 ab 90 88 3e ae 49 21 3e 56 bf a3 be c4 7a 02 bd
       0.26672873 0.15750763 -0.31981915 -0.03185536
000250 7a 48 e5 bd 1d 7e 84 3d 6f 90 4d 3e 10 36 fb bd
       -0.111954644 0.06469367 0.20074628 -0.12266171
000260 32 78 cf bd e2 70 d4 bd a3 7f 23 3f 5f ad 3e bd
       -0.10130347 -0.10373093 0.63866633 -0.04655206
000270 d7 e8 a5 bc f3 36 99 3d 45 bb 63 3d ba f1 18 3d
       -0.020252628 0.07481184 0.055598516 0.037339903
000280 1f 13 05 3e 85 39 59 bc 28 66 f6 bd 9d 44 0d 3e
       0.12995575 -0.013258343 -0.120312035 0.13795705
000290 75 8f 4f bd 57 6f f5 3d 13 ed 1d be 75 8f 05 3d
       -0.05067392 0.11984127 -0.15422468 0.032607514
0002a0 b3 48 e7 bd b1 77 24 bd 2b 41 1a bd d3 ce 82 bd
       -0.11293163 -0.04015321 -0.037659805 -0.06387105
0002b0 38 90 4d 3d c6 cb 9c bd f9 d2 23 3e 84 44 38 3d
       0.050186366 -0.07656054 0.15998448 0.044987217
0002c0 67 e0 a6 3a 89 31 b9 bd ef 74 d7 bd 9e a3 84 bb
       0.0012731672 -0.09042651 -0.1052035 -0.004047825
0002d0 c2 e1 0c bd b5 a5 d8 3d 17 7b 25 3d 4a 9a a0 3e
       -0.034394987 0.10578481 0.04040059 0.31367713
0002e0 20 a6 02 3d 82 cd 36 3e 5b 55 a4 3d 8f d8 a8 3d
       0.03189671 0.17851833 0.08024093 0.0824443
0002f0 b8 b7 c8 3d f5 a3 02 bd 56 f0 58 bd a8 6e f7 bd
       0.098006666 -0.031894643 -0.052963577 -0.12081653
000300 e1 bd 35 3c 11 21 ef 3d 64 48 d4 3a 8b 80 86 3d
       0.011092634 0.11676229 0.001619589 0.065674864
000310 97 ce 24 be c7 d4 fc 3c 28 8f a0 3d cb 8c fd 3d
       -0.16094433 0.030863179 0.07839805 0.1238037
000320 e9 eb 73 be 70 0e 7b bd d7 86 36 be 5f fa 50 bd
       -0.23820461 -0.061293066 -0.17824875 -0.051020022
000330 96 b1 fe bd 3f 05 16 3e 96 b4 f3 bd 27 d9 94 be
       -0.124362156 0.14650439 -0.118996784 -0.29071924
000340 74 73 bd bd 2b 39 0a 3d ca c1 9a 3d b3 00 9b bd
       -0.092505366 0.033745926 0.075564936 -0.07568493
000350 a6 81 77 bc 24 e1 11 be 38 85 87 be 1c 7b 22 be
       -0.015106594 -0.1424604 -0.26468825 -0.15867275
000360 bd a9 73 be 74 ad 01 bd 78 f9 4f 3d 9c 3a a2 3d
       -0.23795219 -0.03165956 0.05077502 0.07921335
000370 7d 9f 61 bd 6d 9c 95 3d a3 9e e8 bc 14 35 93 3b
       -0.05508374 0.073052265 -0.028395956 0.0044924114
000380 ab f5 32 3d 53 7f 2b bd 72 ac 50 3d 2d 16 54 3e
       0.04369132 -0.041869473 0.050945707 0.20711584
000390 7a 3d 8a bd a6 58 38 3d 2d 9b 34 3c 4b e8 a7 3d
       -0.06750007 0.045006417 0.011023325 0.08198603
0003a0 6e 2a 3f 3e d4 82 e3 bd 98 e2 cc bd 8a 1f 28 bc
       0.1866853 -0.11108938 -0.10004157 -0.010261426
0003b0 39 2c 01 3c 99 6a b6 bd de 7c ea 3d ca 77 d3 bd
       0.007884079 -0.08907051 0.11449598 -0.10325582
0003c0 79 1f c3 3d 5c 92 8e 3e 4c 9a 66 3e 63 8e b7 bd
       0.09527487 0.27846038 0.22519797 -0.08962705
0003d0 29 9e c1 bc 3c 1e 8e bd 9a e0 5b 3e 05 37 35 be
       -0.023634987 -0.069393605 0.21472397 -0.1769677
0003e0 1d 3a f8 3d 82 2d 5f 3d df 79 76 bd 0a 0e 80 3c
       0.12120459 0.05448676 -0.06017482 0.015631694
0003f0 fd 00 f4 3d 94 29 c5 bd 40 4b bc 3d af fd ad 3d
       0.11914251 -0.09627071 0.0919404 0.08495652

decoder.2.bias f4 [64]
000000 66 89 10 3d 15 ae 4b bd fe 61 4b be 6c 9f db 3e
       0.035287283 -0.049726564 -0.198616 0.42895067
000010 69 1c f9 3d 2f 79 a7 3d d1 6b 91 be 2c 95 13 3f
       0.12163622 0.08177411 -0.2840257 0.57649493
000020 71 2c 8a 3d 83 ae a7 bc 05 56 6f bc 7f 7a f4 bd
       0.06746758 -0.020468956 -0.014607911 -0.11937427
000030 28 e3 2c 3e 06 ba 8c be ff 69 06 3d 8f 16 59 3e
       0.16883528 -0.27485675 0.03281593 0.21200012
000040 db f5 34 3e 07 bc 14 bd c1 45 ec 3d d1 f1 6a be
       0.17671911 -0.03631213 0.11536742 -0.22943808
000050 f4 33 10 be 75 48 47 be b4 e4 ef 3d f3 07 8e be
       -0.14082319 -0.19461234 0.117135435 -0.2774044
000060 aa 7f 0c 3d 36 a7 08 3e 66 61 0b 3f ea 9f 5e 3d
       0.034301437 0.13345036 0.54445493 0.054351725
000070 fc 7f 33 3b 1b db b4 3c f1 3b 0a 3e 2d d6 35 3f
       0.0027389517 0.022077134 0.13499428 0.7102993
000080 35 70 5a 3e 76 7c be be 8f 8b e7 3e f8 ef a9 3c
       0.21331866 -0.3720433 0.45223662 0.020744309
000090 04 c8 fa 3d fa 4b 91 bd 97 d6 8a bf 7d 15 83 bd
       0.12245181 -0.070945695 -1.0846738 -0.06400583
0000a0 32 6b 65 be bd ae a8 3e ff 6f 9b be 5d 7e d4 bd
       -0.22404173 0.32945815 -0.30358884 -0.103756644
0000b0 14 da e6 3e 25 9c 85 be bd 82 ef 3e ca 2e 1a 3e
       0.45088255 -0.2609569 0.46779433 0.15056911
0000c0 50 97 ce bc d7 57 bb be 40 f0 ab 3e b7 e3 2d bf
       -0.025218636 -0.36590454 0.33581734 -0.6792559
0000d0 a8 87 5d 3d c3 9e 8c bb 35 54 e8 be 54 45 1f be
       0.05408445 -0.004291387 -0.45376745 -0.1555379
0000e0 d5 90 28 3e d1 80 46 be fc ed 32 bd 66 b9 0e 3f
       0.16461499 -0.19385077 -0.04368399 0.55751646
0000f0 ec ae 64 3e 7a d0 c7 bd 5e db 87 3e d6 7a 80 3e
       0.22332352 -0.097565606 0.2653455 0.25093716

decoder.4.weight f4 [160, 64]
000000 6e 7b 00 bd f9 4b 84 bc 72 17 29 bb 78 03 40 3d
       -0.03136771 -0.016149508 -0.0025801328 0.046878308
000010 f1 0a db bb 9b 4c 01 3e 9e 55 38 3d 37 65 22 3d
       -0.006684654 0.12626879 0.045003526 0.039647307
000020 0b 31 81 3c 91 78 74 bc 1d 2e f1 3c e6 86 c1 3d
       0.015770456 -0.014921323 0.029440934 0.09449558
000030 1e 9c 12 bd 7f ae c0 bc 6d 90 4c be 95 b7 61 3b
       -0.035793416 -0.023520706 -0.19976969 0.0034441699
000040 64 bd 2c 3e 17 9c 0f 3c 73 a9 1a 3c d8 97 fb bd
       0.16869122 0.008765242 0.009439814 -0.12284821
000050 1a d8 57 bd 03 e3 1f 3e 9c 5f cc bb 35 c3 28 bd
       -0.052696325 0.15613942 -0.0062369835 -0.04120179
000060 78 dc 33 bc e4 ff 51 bd 9b c1 5b 3e ef 21 e2 bc
       -0.010977857 -0.051269427 0.21460573 -0.027604071
000070 28 6e ab bd 0b 90 9c 3e 3d 15 44 3d 27 89 93 bd
       -0.0837062 0.30578646 0.047871817 -0.07203894
000080 51 e6 1d be dd d8 3a bd 36 99 81 bc cb 90 01 bd
       -0.1541989 -0.045616973 -0.015820127 -0.031632226
000090 63 e4 e5 bd 2b 92 23 be 37 9d 05 3c 57 62 1d 3e
       -0.11225202 -0.15973727 0.008155159 0.15369545
0000a0 d4 f2 17 be 54 b9 86 bc bb 7e 79 3c 21 53 9c 3c
       -0.14838725 -0.016445793 0.015227969 0.019082608
0000b0 75 98 75 3d c6 03 bc 3c a3 7a a3 3e a3 95 d6 3c
       0.059959847 0.022951018 0.31929502 0.0261944
0000c0 87 2c 7d 3b 7a 9c 1f bc c0 0f e7 3d 50 66 b7 bc
       0.0038631277 -0.009741897 0.11282301 -0.022387654
0000d0 e1 a7 17 3b 32 8f 9f 3b 8c b4 15 be 61 1f 77 3c
       0.0023140835 0.004869365 -0.14619654 0.015083165
0000e0 08 4a 8a 3c 5d 72 48 3d ea df 1c 3d 6b 7b ae 3c
       0.016881004 0.04893719 0.03829948 0.021299085
0000f0 84 56 af 3d b2 4f 25 bd ed ca f2 bc a4 d5 ac 3d
       0.085614234 -0.040359206 -0.029637778 0.08439186
000100 2c 3a 33 bd fb 1e 5f 3d e0 66 67 bd e6 a3 9c 3d
       -0.04375665 0.054472905 -0.056494594 0.07648449
000110 1f 89 b5 bc 72 76 59 3e fb 66 4d bd 6c 1b 96 bd
       -0.022160111 0.2123659 -0.050147038 -0.07329449
000120 d0 61 dc bc 2d 2c 41 bd 22 84 7b 3b 64 6a 88 bd
       -0.02690211 -0.04716127 0.0038378318 -0.066609174
000130 ac 73 21 bc 77 5c 13 bd 5b e5 14 3d e0 fc 9a bb
       -0.0098542385 -0.035976853 0.036351543 -0.004729852
000140 a8 01 4b bd b8 f1 8b 3b 2b 03 eb bd c4 c6 de bd
       -0.049562126 0.0042707585 -0.114752136 -0.10877755
000150 d3 1e 62 bd b8 26 9c 3d 99 e6 ac 3d 99 fc 97 bc
       -0.055205178 0.076245725 0.084424205 -0.018553065
000160 c8 f1 b3 3c 09 53 97 3c 09 de aa 3e 52 84 f3 3c
       0.021965876 0.018472211 0.33372524 0.029726181
000170 2a 34 fd 3c 88 de e9 bc c7 fa ff bd 94 c2 19 3c
       0.030908663 -0.028548494 -0.12499004 0.00938477
000180 5d 05 96 bc b0 44 d1 3c 07 f2 4a bb 39 5f b7 bb
       -0.018313104 0.025545448 -0.0030967013 -0.005596068
000190 b1 ee 1e 3d 47 01 83 3e 30 a8 40 3a d3 ad 37 bd
       0.038801853 0.25586912 0.00073492806 -0.044843506
0001a0 03 eb 0b bc 99 3e e8 3c 51 cc 94 bd d0 8b 13 bc
       -0.008539918 0.028350161 -0.07265533 -0.009005502
0001b0 6f b7 b9 3d 86 a7 84 3c 4c 22 7d 3e 06 30 e2 3c
       0.0906819 0.016193163 0.24720114 0.02761079
0001c0 c2 52 5f bb 6a a7 58 bc 8d 56 94 3c ea 6e 16 3c
       -0.0034076427 -0.013223508 0.018107677 0.009181717
0001d0 ae 1e 98 3c 7c a9 66 bd fb a3 69 bd 51 7d 07 bb
       0.018569317 -0.056313977 -0.05704115 -0.002067406
0001e0 e8 c8 2f bd 76 07 8a bd a9 dd a4 bc 29 32 af bd
       -0.04291621 -0.06739704 -0.020125227 -0.08554489
0001f0 10 22 8d 3d 32 a4 14 3e 72 ad 19 3c 46 d7 d4 3d
       0.068912625 0.1451576 0.0093797315 0.10392623
000200 3b 55 52 3c 15 57 a1 bd 20 c6 9f bc f5 b6 0d 3e
       0.012837703 -0.07877938 -0.019503653 0.13839324
000210 81 e1 a9 bc 60 e3 70 3d d3 56 5c bd ae 3a 86 3e
       -0.020737411 0.05881059 -0.05379374 0.26216644
000220 0e 3b d0 bb 84 46 98 bc e9 64 06 3d 2d e0 92 3c
       -0.006354696 -0.018588312 0.03281108 0.017929161
000230 2c cd af 39 23 11 14 bd d1 0f cd bc ce 76 37 3d
       0.00033531466 -0.036149155 -0.025031956 0.044791035
000240 05 f6 c6 3d 49 37 29 bc 0e df 42 be 10 e1 41 3c
       0.09714893 -0.010328122 -0.19030401 0.011833444
000250 74 33 41 bd 4e 86 0e be 47 21 0f 3d f5 bf 67 3c
       -0.04716821 -0.1391842 0.034943845 0.014144887
000260 56 85 b5 ba f1 10 4d 3d f5 5d ef 3d f5 14 b0 3b
       -0.0013848941 0.050064985 0.11687843 0.005373592
000270 84 2e 35 3d 0a fa 40 bd ad c4 42 be 23 05 20 3d
       0.044233814 -0.047113456 -0.19020338 0.0390674
000280 2b 31 42 3e 15 0b 2c bd 49 15 64 3c fa 06 8e 3b
       0.18964069 -0.042002756 0.01392109 0.0043343278
000290 be 48 99 bc fc 50 2f bd fc fb d1 bc c9 a6 ac 3d
       -0.018711444 -0.042801842 -0.02563285 0.08430249
0002a0 92 cc ae bd 3a b9 03 bd 3b 63 f5 bc cc 0b 1b bd
       -0.085351124 -0.032159068 -0.029954543 -0.037853047
0002b0 aa c0 36 be 09 41 76 bd 27 97 52 3e a2 4f 92 bc
       -0.17846933 -0.060120616 0.20565473 -0.017860238
0002c0 8d 32 c1 bb a4 0d ae bc b1 cf db 3c 4d 09 d7 ba
       -0.0058959187 -0.021246739 0.026832433 -0.001640597
0002d0 ba da 97 bc 60 81 c0 3c 00 d4 11 bd b5 86 1f bc
       -0.018536914 0.02349919 -0.03560257 -0.0097367065
0002e0 5c 64 84 3d ba 01 09 3c 96 2b cd 3c 6a b3 52 3e
       0.064644545 0.008362228 0.025045197 0.20576254
0002f0 42 02 ab 3d 9b 1b 0b 3e 7a 60 36 bc e9 8c b1 3d
       0.0835004 0.1358475 -0.0111314 0.086694546
000300 0b fc ba 3c 29 08 ed ba ba 73 05 3d b6 75 3e 3e
       0.022825262 -0.0018084097 0.03258107 0.1859959
000310 c4 c0 1a bd 9d 3a 0c 3e 29 5c dd 3d 04 5f 38 3e
       -0.037781492 0.13694234 0.10808594 0.18004996
000320 23 16 a5 3c 91 68 63 bd 7c a0 d4 bc 0f 24 9b bd
       0.020152157 -0.055519644 -0.025955431 -0.07575237
000330 b5 3e 04 bd 35 4b 4e bd 24 b6 2e bd c6 e4 35 3e
       -0.032286365 -0.05036469 -0.04265417 0.17763051
000340 15 da 9e bd 8e 6f a8 3d 0d 9c 34 3e 66 27 1c bd
       -0.077564396 0.08224402 0.17637654 -0.03812351
000350 48 47 ad 3c e4 65 14 bd 44 25 44 3d 61 1a 71 bd
       0.021152154 -0.036229983 0.0478871 -0.058863048
000360 7e ee 16 bc a1 25 05 3d f9 46 0a 3e be 5c fb 3c
       -0.009212134 0.03250659 0.13503636 0.030683871
000370 13 73 55 bd 80 b1 dd 3d 45 b9 a7 3d f9 d0 61 3d
       -0.052111696 0.10824871 0.08189634 0.055130932
000380 a2 5c fb 3b 97 a2 97 bc ed f4 36 3c 7d 65 35 3d
       0.007670955 -0.018510146 0.011166793 0.04428624
000390 b8 90 c6 3c 4d 16 48 3d e6 49 d2 3e 35 92 1d bd
       0.02423893 0.048849393 0.41072005 -0.038469512
0003a0 bf f0 97 be 36 f9 82 3d d9 80 1a be 62 90 c5 bd
       -0.29675862 0.063951895 -0.15088214 -0.096466795
0003b0 de 56 cb 3d e0 0f b7 bd 23 5b eb 3d 68 68 b3 bc
       0.09928678 -0.08938575 0.11491992 -0.02190037
0003c0 4b 83 3e 3c ce 22 05 bd df 47 e6 be 2a 84 2b 3e
       0.011627982 -0.032503895 -0.44976708 0.16749635
0003d0 a3 e4 08 bd d2 3b f0 3c 46 f0 09 3e a3 bb 51 3d
       -0.03342117 0.0293254 0.13470563 0.051204335
0003e0 cb 6c d5 bc b6 f4 be bd c5 33 89 3d fe af 72 3e
       -0.026052853 -0.09324019 0.066993274 0.23699948
0003f0 f6 bd 21 bd e0 a9 23 3b d0 7b 0b bd 62 fb 02 3e
       -0.0394878 0.002497308 -0.034053624 0.12791207
