models/cnn_model.pt (torch, 52751 bytes, 7 tensors)

conv1.weight f4 [32, 5, 1]
000000 71 c8 24 be 38 17 eb be 64 75 53 bd a4 a7 03 3f
       -0.16092087 -0.45916152 -0.051625624 0.51427674
000010 04 0b 13 3f 5d c8 13 3e cd 2d 0d 3e ac ec fe bd
       0.57438684 0.14431901 0.13787003 -0.12447485
000020 5b b7 2b bd ae c3 4c 3d 44 73 a7 3e f5 d4 1a be
       -0.04192291 0.049991302 0.32705128 -0.15120299
000030 91 37 bd 3e 88 cf 86 3e 45 c7 19 bd 4e 14 6c 3e
       0.36956456 0.2633021 -0.037543554 0.2305462
000040 7c dd 55 3e b9 88 50 be 0b 9d 34 be 89 ea d2 3e
       0.20885271 -0.20364656 -0.17638032 0.4119456
000050 68 5d d5 3e 47 40 a2 bc d7 c8 c4 3e a4 d6 9b bc
       0.41672826 -0.01980604 0.3843448 -0.019023247
000060 e1 a7 55 bf 5d db 81 3e fe 0e 6e be fd 11 4b 3e
       -0.8345929 0.25362673 -0.23247907 0.1983108
000070 81 91 62 be 39 0c 27 3c d0 9e 8a be 02 03 5e be
       -0.22125818 0.010195785 -0.2707429 -0.21680835
000080 49 7a 63 3e 3c 6b 6e be e7 23 b4 be 01 9a b9 3e
       0.22214617 -0.23283094 -0.3518364 0.36250308
000090 23 87 79 3e c3 ea db 3c 3b f0 45 be 6e 56 7c be
       0.24367957 0.026845342 -0.19329922 -0.24642345
0000a0 b4 98 b8 3e 43 5d 91 be 5c 11 d9 bd 28 0d a2 3e
       0.36054003 -0.28391466 -0.10599014 0.31650662
0000b0 d7 64 29 3f 17 9a 17 3f d4 ac 59 be 6a 73 b9 3d
       0.66169494 0.592195 -0.21257335 0.090552166
0000c0 b0 36 de 3d c1 28 12 bd a9 19 e3 be e1 9e 86 3d
       0.108502746 -0.035683397 -0.44355515 0.065732725
0000d0 d5 c6 36 be 62 97 d2 3c 00 56 ee 3d a0 39 59 be
       -0.17849286 0.02570695 0.11637497 -0.21213388
0000e0 bb e1 93 3e 92 f5 e6 3e 60 ca 78 be 05 5a 25 bf
       0.28883156 0.4510923 -0.2429595 -0.64590484
0000f0 92 dd 81 bd 9e 1c cd be e2 96 76 bf 62 ca 23 3f
       -0.06341089 -0.40060896 -0.9632398 0.63980687
000100 a8 73 56 3d 24 8a d6 3e 55 51 6c 3d e8 d9 20 3f
       0.052356392 0.41902268 0.05769475 0.628325
000110 5d de 9b bd 02 45 8e bf 17 0e 33 3e 30 07 e1 bc
       -0.07610772 -1.111481 0.17485844 -0.027469248
000120 c5 57 62 bd 7d 97 83 be 42 13 18 3f b1 81 23 3f
       -0.055259485 -0.25701514 0.59404385 0.6386977
000130 7d 5c c3 bc af c5 23 3f 80 9d c3 be 32 6c 23 bf
       -0.023847813 0.63973516 -0.382061 -0.6383697
000140 7a 72 08 bf 79 21 b5 be 49 cf 36 3e 35 42 bf 3e
       -0.5329968 -0.353771 0.1785251 0.373552
000150 b4 17 8f 3e 52 a4 28 bf 28 49 47 3e 9d 23 8d 3c
       0.27947772 -0.6587573 0.194615 0.017228896
000160 38 67 ed 3e 32 3f 53 be d1 b5 1f bf 79 11 c1 3d
       0.46367812 -0.20629576 -0.62386805 0.09427161
000170 b0 57 50 be 32 c5 1a 3e 0e 2d 19 3f 5b 54 8c bd
       -0.2034595 0.15114287 0.59834373 -0.06852027
000180 d1 e7 b8 bb 93 00 ba 3e 58 8a 2d bc 1e d4 89 3c
       -0.005642869 0.36328563 -0.010592066 0.016824778
000190 50 b9 7e 3e 4d 26 02 3e bb 82 47 ba f0 88 59 bd
       0.24875379 0.12709923 -0.0007610728 -0.05310911
0001a0 30 af e5 be 63 73 6d be 99 09 29 3d 9e 93 f1 bd
       -0.4486022 -0.23188548 0.04126892 -0.11795734
0001b0 0a dd f7 3c f6 a0 8e be ec 06 cc 3e 47 6e d3 bd
       0.030256767 -0.27857178 0.3984903 -0.10323768
0001c0 25 20 a9 3e 03 74 83 bd d9 11 e1 3e e0 4f 45 bf
       0.33032337 -0.06418612 0.4395893 -0.77075005
0001d0 9f d5 db bd 23 7e d3 3d 1c 42 cc 3d 8c 30 d9 3e
       -0.10734104 0.10326793 0.09973547 0.4241985
0001e0 e6 ef 87 3c d4 a1 b1 bd 2b 25 84 be ac 50 a2 3d
       0.016593885 -0.086734444 -0.25809607 0.07925543
0001f0 ce 86 23 be ae f6 d2 3d 5e ca 84 be 12 7d 97 be
       -0.15969393 0.10300957 -0.25935644 -0.2958761
000200 10 95 85 3e a4 60 11 3e 86 30 0f 3e 62 61 96 bd
       0.26090288 0.14197022 0.13983354 -0.07342793
000210 3d 5f a5 3d 31 97 40 3f 3f d8 5b 3f 2d b0 88 be
       0.08074806 0.752307 0.8587684 -0.2669691
000220 59 a3 0e bd 3e e1 b2 be 86 42 3f 3d 5d aa f5 3e
       -0.03482375 -0.3493747 0.0466943 0.4798154
000230 94 ba a3 3c 33 12 6c 3c 04 c6 90 3d f5 3f 1c be
       0.019986428 0.014408636 0.070690185 -0.15258773
000240 a1 bf 5c be 20 76 5b 3d 82 3c 85 3d f6 7e 91 be
       -0.21557476 0.05357945 0.065056816 -0.28417176
000250 e2 62 a1 bc 56 fe 24 bd ea ce 8e 3e 70 2b 95 3e
       -0.019700471 -0.040281616 0.27892238 0.29134703
000260 dd 2e 94 be 6f b5 c6 bd 68 45 38 3e 1b f3 88 3e
       -0.28942004 -0.097025745 0.17995226 0.26747975
000270 59 5e 59 bd f6 12 95 3e 3f b1 4f bc 84 76 93 be
       -0.053068493 0.2911603 -0.012676536 -0.28801358

conv1.bias f4 [32]
000000 b7 db 93 3f 00 14 99 3f 6a bd 20 bf 1c 26 70 3f
       1.1551427 1.1959229 -0.6278902 0.9380815
000010 60 c5 99 3f 6c 18 92 bf 1b f4 92 bf 8f 89 33 bf
       1.2013359 -1.1413703 -1.1480745 -0.7013177
000020 19 af 73 bd 1b c9 af 3e c4 10 a7 3f 3e fb a9 bf
       -0.059493158 0.3433312 1.3051991 -1.3279798
000030 56 71 67 3b 1a 87 cb 3f 25 ec a3 3f 9e 11 95 bd
       0.0035315356 1.5900605 1.280644 -0.07278751
000040 55 ce 9e 3f d3 75 9f be 39 3b 8c 3f 50 1d 92 3f
       1.2406718 -0.3114458 1.0955573 1.1415195
000050 c4 af 6c bf d0 eb ff 3e e4 d0 9a 3f 75 0c 41 bf
       -0.924557 0.49984598 1.2094998 -0.7540963
000060 d2 f5 6c 3e 6c 4c 8f 3f de cc 85 3f a4 ea 53 bf
       0.23140648 1.1195197 1.0453146 -0.8277991
000070 44 41 69 bf d4 d9 53 3f 39 39 a0 3f ab 0e 38 bf
       -0.9111521 0.82754254 1.2517463 -0.7189738

fc1.weight f4 [64, 160]
000000 94 ed d7 bd 65 ee d5 bd 96 31 01 be b6 3f 19 be
       -0.10543361 -0.10445861 -0.12616572 -0.1496571
000010 6a 66 ac bd e8 6b 62 bb f1 c7 06 bd 56 cf 1f bd
       -0.084179714 -0.003454918 -0.032905523 -0.03901609
000020 ab 0c e6 bd 9e 2b bf bc ac b0 33 3e 6a 7f 4a 3e
       -0.11232885 -0.023336228 0.17547864 0.19775167
000030 c9 c5 8e 3d cd c7 0a be 78 b7 40 bd 55 ae b0 bb
       0.06971318 -0.1355278 -0.04704997 -0.0053918757
000040 74 78 cd bd 09 d0 5c bc c4 6f d9 bd ce ce 4f bd
       -0.1003274 -0.013477334 -0.10617021 -0.050734334
000050 31 8b 0f bd dd 39 a3 3b 56 14 2e bd 23 06 87 bd
       -0.035044853 0.004981263 -0.042499863 -0.06592967
000060 88 67 f0 bd a6 cd 30 3e 7a bb 31 3e 99 d0 22 bd
       -0.11738497 0.17265949 0.17356673 -0.039749715
000070 54 c7 c2 bd 34 73 20 be 66 5e 1b be f2 55 67 bc
       -0.09510675 -0.15668947 -0.15172729 -0.014119612
000080 7c 81 1b 3e 44 0f 06 bd a2 e3 89 bc 12 51 ae bd
       0.15186113 -0.032729402 -0.016832177 -0.08511557
000090 9a aa 22 bd ce 9d 7f 3d 38 fd ce 3c a6 01 f5 bd
       -0.03971348 0.062406354 0.025267228 -0.11963205
0000a0 78 6f fa 3d d6 cb 0b 3e 42 e3 9b 3d 4c fe 18 be
       0.12228292 0.13651976 0.07611705 -0.14940757
0000b0 5e 8d e6 bd d9 6a 1c 3d 4e 9a 3e 3d 5b 05 82 3d
       -0.112574324 0.038187835 0.046533875 0.06348678
0000c0 e9 3e 22 be 03 91 be bd 00 64 d8 bc c2 8f 64 bc
       -0.15844311 -0.093050025 -0.026414871 -0.01395029
0000d0 c0 d2 08 3d 74 48 b5 3b bd 9e 61 3d f6 35 c5 3d
       0.03340411 0.0055323187 0.055083025 0.09629433
0000e0 9e 75 e9 3c ac ab a2 bd 58 17 57 bc 4e de cd bc
       0.028498467 -0.079429 -0.013128124 -0.025130417
0000f0 5e 3a ec bc 64 47 b5 bd 15 39 b1 3c 1b 1c 97 3d
       -0.028836425 -0.08851507 0.021633664 0.073784076
000100 a4 1f 74 3c 43 e1 5f bd 06 f9 06 bd 66 f6 d9 3b
       0.014900122 -0.054658186 -0.03295233 0.0066516874
000110 81 67 5c bd cd 8e 23 3d 6d 46 65 3c 12 7b 88 bd
       -0.053809647 0.039931107 0.013993842 -0.06664099
000120 e1 1a 23 bd cf 01 75 bd f1 2d d1 bc 85 71 59 3e
       -0.039820556 -0.059816178 -0.025534602 0.2123471
000130 a7 be c1 3d ab 4b ee 3d bc 0a 2a be 6d 3d 09 be
       0.09460192 0.11635526 -0.16605657 -0.13402338
000140 e4 35 37 bd 31 81 97 3c 4e 2e 94 bb 0c f8 a7 3c
       -0.04472913 0.01849422 -0.0045221215 0.02050402
000150 27 1a 73 3d ac 33 42 be 1f fd 1b bd 6b e1 6e bb
       0.059351113 -0.18965024 -0.038083192 -0.0036450278
000160 6b 63 f7 bc 81 83 12 ba e0 80 05 be 35 17 55 bd
       -0.030198773 -0.00055890536 -0.13037443 -0.052024085
000170 11 cc 9d bd 3d 97 0d be 78 ff a3 3c 85 e9 f9 bc
       -0.07704938 -0.13827224 0.020019278 -0.030506859
000180 08 76 81 3c bb 03 43 bd fe 39 82 bd 33 85 02 be
       0.015803352 -0.04761098 -0.063587174 -0.12746124
000190 ed 86 fc 3b fc 9c 50 bd 96 92 a6 bd 1c e1 96 bc
       0.007706514 -0.050930962 -0.08133428 -0.018417887
0001a0 c9 90 17 3b 53 83 e6 bc 46 5b 08 3d 37 64 26 3c
       0.002312707 -0.028138792 0.03329017 0.010155729
0001b0 27 6c f2 3d b6 04 2b bd c7 0d c5 3c ac 01 b9 3c
       0.11837035 -0.04175254 0.024054421 0.022583805
0001c0 15 e9 47 bd e7 e7 3e be c0 a3 31 bd f8 89 b6 bc
       -0.04880627 -0.18643151 -0.043369055 -0.022282586
0001d0 4c 7b 48 3c ae a5 b2 3d 6d 9d 77 bd 8d d7 66 bc
       0.0122364275 0.08723007 -0.060452867 -0.014089477
0001e0 c5 58 f7 bd e5 ff 85 bd 89 3b fa bc f6 9c 64 3d
       -0.12077478 -0.06542949 -0.030545967 0.055813752
0001f0 8e 1c 95 bc fe b2 f1 bd 3d e5 0b bd 2d fe 82 bd
       -0.018202092 -0.11801718 -0.034154166 -0.063961364
000200 b1 c0 83 3b 5f f0 cc 3c 33 b4 b7 3d 72 ac 69 3d
       0.0040207733 0.025016962 0.08969917 0.057049222
000210 79 94 32 bd 8c 40 c6 bd c4 d0 0d be 84 6d 6a bc
       -0.043598626 -0.0968028 -0.13849169 -0.014308337
000220 0b 9a 18 3d 8a 0a 3c bc 34 cf 53 bd ae c4 6b 3d
       0.03725628 -0.011477122 -0.051711276 0.057560615
000230 1a 86 a0 3d 13 95 0f bc 14 92 f9 3b c8 bb eb 3c
       0.07838078 -0.008763569 0.007616291 0.028776065
000240 73 05 4a bd aa ae 56 bd d6 f0 90 bd 74 0c 22 3c
       -0.049321603 -0.052412666 -0.07077186 0.009890664
000250 7a 11 a1 3c 9e 2f 57 3d e2 30 e9 3a 47 53 8e bd
       0.019661654 0.052535646 0.0017791057 -0.06949478
000260 68 92 ad bd 85 ac 22 be 14 ce 13 bd 75 81 e8 bd
       -0.084751904 -0.15886123 -0.036085203 -0.11352817
000270 0d d8 23 bd 75 69 c2 bc 36 92 6a bd 73 1b cb bd
       -0.040000964 -0.023731926 -0.057268344 -0.09917345
000280 32 bf 0c 3b e4 ea 61 bd 94 77 51 bd 98 e5 d2 3c
       0.0021476266 -0.05515565 -0.05113943 0.025744244
000290 5d dc a2 bd fd b0 24 3d 10 64 89 3d d6 84 0a bd
       -0.07952187 0.04020785 0.067085385 -0.03381809
0002a0 c8 4a 37 bd 5b cd 31 bc 35 ea 14 bd 90 d4 cd 3c
       -0.04474905 -0.010852183 -0.03635617 0.025125772
0002b0 1d 35 15 bd 12 af 4d 3d c8 46 66 3c 92 4e 53 3b
       -0.036427606 0.05021579 0.0140549615 0.0032242876
0002c0 06 94 3d 3c 4f c1 81 3d 82 5d 26 3d b8 b9 03 3c
       0.011570936 0.06335699 0.04061652 0.008039884
0002d0 7b 98 09 3d 2d d5 1f 3d 80 e4 90 bd a0 c3 6b bc
       0.033592682 0.03902166 -0.07074833 -0.014389902
0002e0 bf ff 50 bd d5 cf 53 3d 87 e5 95 bd 3b 49 89 bd
       -0.05102515 0.051711876 -0.073191695 -0.06703421
0002f0 00 d8 59 ba cc c1 bd 3c 7e 0d 4b bd 34 27 d2 3c
       -0.00083100796 0.023163699 -0.049573414 0.02565346
000300 d4 0b d0 3c f4 35 6c 3d 85 13 28 3d 2f 9f 55 bd
       0.025396265 0.05766864 0.04103424 -0.052153762
000310 de 90 3d bd 38 9d 0c bc 89 d3 08 3d 64 50 30 bd
       -0.046280734 -0.008582406 0.03340486 -0.043045416
000320 f8 f1 88 bd b4 7f 09 bd 5f 69 92 bb ef 92 08 bd
       -0.06686777 -0.033569053 -0.0044681276 -0.03334325
000330 26 9b 50 3d 21 98 2c 3d c6 b1 4d 3c b5 75 a3 bc
       0.05092921 0.04213727 0.0125545915 -0.019953588
000340 16 1c 2d 3d ae 1e f2 bc a8 3d d6 bc b0 e5 e3 bc
       0.042263113 -0.029555645 -0.026152447 -0.027819484
000350 b8 1e 99 bd 81 eb 81 3d 1b 43 e0 3a ed 8c 1d bd
       -0.07476562 0.06343747 0.0017109843 -0.038464475
000360 f6 83 95 bd c6 9e 9c bd e4 92 6e 3d 11 4c 95 3d
       -0.0730056 -0.07647471 0.058245555 0.07289899
000370 62 a6 49 bd 12 c6 47 bd 6c 21 86 bd 7c 0d e9 bc
       -0.04923094 -0.04877288 -0.065493435 -0.028448813
000380 5b 60 c0 3c 05 a6 bb bc ec a8 1a bd 0e 90 ec 3c
       0.023483446 -0.022906313 -0.037758753 0.028877284
000390 48 79 a9 bc fa 1f c1 bc c3 96 f5 bb 6f bb 8b bd
       -0.020687714 -0.023574818 -0.007494779 -0.068228595
0003a0 28 af cb 3c d0 4c 1e bd 34 1d 2f bd a3 7f 9c 3c
       0.024863794 -0.038647473 -0.04275246 0.01910383
0003b0 60 6f 25 bd ab dc 74 3d 44 f6 d1 3c 56 ba 48 3d
       -0.04038942 0.059780758 0.025630124 0.04900583
0003c0 32 99 93 bb 57 74 75 3b 2f 4f 97 bd fe 84 57 3d
       -0.0045043463 0.0037453377 -0.0738815 0.052617066
0003d0 a3 5a d5 3c 54 f6 14 3d f4 36 b6 bd ae 2e 90 bc
       0.026044196 0.03636773 -0.088972 -0.017600384
0003e0 4c 87 ed bc 52 38 81 3d dc 06 63 bd 45 bb 6e bd
       -0.028995179 0.0630957 -0.055426463 -0.058284063
0003f0 a6 40 5c bd 68 a7 8c bd 3a d0 bf bc b3 3c 08 3d
       -0.05377259 -0.06867868 -0.02341472 0.033261012

fc1.bias f4 [64]
000000 5c 2d 01 be b9 34 b5 bc a7 d7 6a 3f f8 59 57 3f
       -0.1261496 -0.022119867 0.9173531 0.84121656
000010 c8 57 2a bd 93 e7 9e bd fc 4a 68 3f c5 6c 87 3f
       -0.04158762 -0.07759013 0.9073942 1.0580069
000020 5d 17 6c 3f 00 b9 83 3f 17 7f 76 3f 32 c3 6f 3f
       0.9222315 1.0290833 0.96287674 0.9365722
000030 8d 97 7e 3f 18 0d 82 3f 64 01 86 3f b5 65 5f 3f
       0.9945 1.0160246 1.0469174 0.8726457
000040 bd dd 83 3f ad bf 7e 3f df 62 7a 3f 19 fa 82 3f
       1.0302044 0.99511224 0.97807115 1.0232574
000050 09 86 88 bd 17 d3 fb 3e 9d a5 8a 3f 72 01 80 3f
       -0.0666619 0.49184486 1.0831791 1.0000441
000060 6c 4a 7e 3f c7 65 84 3f f5 6a e5 3e f4 c8 78 3f
       0.9933231 1.034356 0.44808164 0.9718163
000070 0b 3a 77 3f 30 b5 8f 3f d0 1f 87 3f 6a cf 51 bf
       0.9657294 1.1227169 1.0556583 -0.81957114
000080 4e 67 ad bd 8d d6 ac bd aa 8d 7a 3f 85 52 94 bc
       -0.084669694 -0.0843936 0.9787241 -0.018105755
000090 99 0c 77 3f 90 10 8c 3f 2c ae 56 3f ce 27 02 3c
       0.965036 1.0942554 0.83859515 0.0079440605
0000a0 21 1e 2a 3f 16 e8 86 3f 75 ee 09 be a8 71 83 3f
       0.66452223 1.0539577 -0.1346987 1.026906
0000b0 9f 6f 6f 3f 4c ed bd bd d2 01 39 3f c7 7a 82 3f
       0.93529695 -0.092737764 0.722684 1.0193719
0000c0 ec 42 75 3f 7d 99 82 3f e7 76 79 bd 78 07 f9 bd
       0.9580524 1.0203091 -0.06090441 -0.12159628
0000d0 53 f4 da 3c f5 41 84 3f 7d 88 72 3f ef 0d 6e 3f
       0.026727831 1.0332628 0.94739515 0.9299001
0000e0 03 f5 5a 3f a5 32 12 3f 51 2b 88 3f b2 05 c5 bb
       0.8553011 0.5710853 1.0638219 -0.006012642
0000f0 8c 0b 4b bc 12 b0 73 3f c1 36 6b 3f 91 3f cd bc
       -0.01239289 0.95190537 0.9188042 -0.025054725

fc2.weight f4 [32, 64]
000000 a8 f3 ae 3c 90 b4 24 3d 52 d5 04 bb 8f 09 bc 3c
       0.021356419 0.04021126 -0.002026875 0.022953777
000010 a8 21 86 bc a0 1d 48 bc 47 33 ee 3c 70 b9 e7 3d
       -0.01637347 -0.012214094 0.029077185 0.11314666
000020 96 a7 93 3d 0a 3d c4 bd 20 a0 a1 3d 72 d6 fd bd
       0.07209699 -0.09581955 0.078918695 -0.12394418
000030 22 12 06 bd 6b a9 3b 3d 53 27 40 bb 88 54 bf bc
       -0.032732137 0.045815866 -0.0029320314 -0.023355737
000040 ca 72 a6 bd 40 b9 6a 3d ba a5 ca 3d af a4 03 3b
       -0.08127363 0.057305574 0.09894891 0.0020087173
000050 e0 5b d9 bc 72 c2 86 3d f0 15 85 bc e0 39 a9 3d
       -0.026533067 0.06580056 -0.016245812 0.08262992
000060 c4 d2 36 bc 77 5d 49 3d 46 e4 8e bd d2 c6 da 3b
       -0.011158649 0.0491614 -0.069771335 0.0066765333
000070 08 67 a7 bd 36 58 98 bd e5 79 41 bc b8 29 ad 3c
       -0.081739485 -0.074387 -0.011808847 0.021138057
000080 e4 24 ab 3d 60 0a 3c 3c b4 37 a9 bd 14 67 6c 3d
       0.08356646 0.011477083 -0.08262578 0.05771549
000090 9a 57 b9 bd e2 7d b5 bd 78 b1 a1 3d 88 d7 a1 3c
       -0.09049912 -0.08861901 0.078951776 0.019756094
0000a0 b1 95 ef bc 45 a5 67 bd 70 cb 11 bd ad 62 77 3d
       -0.029246183 -0.056554098 -0.035594404 0.06039684
0000b0 56 ce e3 3c f2 0f bc 3d 13 6f 4f 3d 5a 1e c8 bd
       0.02780835 0.09182729 0.050643038 -0.09771414
0000c0 96 bc b0 3d bc 2d e4 bd 38 b6 0d 3d 18 09 c6 bd
       0.0862972 -0.11141536 0.034597605 -0.09669703
0000d0 0c 2e 9d 3d dc 0b e8 bd 54 f3 75 3d 26 30 c3 bd
       0.07674798 -0.11330387 0.06004651 -0.09530668
0000e0 51 cb 7a bd 48 13 d0 3c d4 f7 89 3d 80 6e f4 3c
       -0.061229054 0.025399819 0.067367226 0.029837847
0000f0 08 c5 9c 3c 66 72 a7 3d 68 e6 9b bd 2c ba e7 bd
       0.01913692 0.08176117 -0.07612306 -0.11314806
000100 f3 d0 24 bc f6 cb de bd d8 93 b5 bd 35 eb ff bd
       -0.010059583 -0.10878746 -0.088660896 -0.12496034
000110 1c b9 5b 3d fd de 9d 3d 28 cf 87 bd d8 2b 08 be
       0.05364333 0.07708547 -0.06631309 -0.13297975
000120 92 e4 90 bd e9 45 e0 bd 46 75 7e bd a9 cd 7c bd
       -0.07074846 -0.10950834 -0.06212356 -0.06171957
000130 39 5a cb bd af 20 0e 3d 1c 4b aa bd 45 08 bc bd
       -0.09929318 0.03469914 -0.08315107 -0.09181265
000140 6e a6 ac 3d 03 f9 c8 bd 88 84 df bd 91 32 99 3d
       0.084301814 -0.0981312 -0.1091395 0.07480348
000150 e0 f4 38 bc fc 28 05 be 7c ab 92 3d f0 e7 61 3c
       -0.0112888515 -0.13003916 0.07161614 0.013788208
000160 09 6e 12 3c 62 15 bf bd 62 28 d7 bd c4 fd 6a 3d
       0.008937367 -0.0933025 -0.10505749 0.057370916
000170 b7 50 44 bd 54 b3 5c bd a3 86 c0 3d b4 ab 57 3c
       -0.04792854 -0.053881958 0.0940068 0.013163496
000180 da d9 11 3d 0c 25 04 3d b5 1e 03 bd a8 0d 0e bd
       0.03560815 0.032261893 -0.032011706 -0.034680992
000190 d7 73 ac 3c 96 40 f3 bc 17 80 02 be 89 f7 7e 3d
       0.02105133 -0.029693883 -0.12744175 0.062247787
0001a0 30 2f 4f 3b 2a 2d f2 bd c1 44 25 3c c8 68 c0 3c
       0.003161382 -0.118250206 0.010087193 0.023487464
0001b0 3c ec 45 bc 32 09 95 bc 52 f8 1a 3d 64 74 b8 bd
       -0.012080248 -0.018192861 0.037834473 -0.09006575
0001c0 9b d9 e5 3c 73 01 c0 3d 00 8e 65 3d d1 da a5 3d
       0.028057864 0.093752764 0.056043625 0.080983765
0001d0 77 3f 89 3c 18 98 8a bc e1 7e a7 bd 4d 67 e9 ba
       0.016753895 -0.016918227 -0.08178497 -0.0017807275
0001e0 03 a6 dc 3d 33 6e 3b bd 0d 6f 83 3d 61 8e da bd
       0.10773852 -0.04575939 0.06417666 -0.10671688
0001f0 3d 63 03 be a6 fb 9d bd 6c 03 94 3d df 87 df 3d
       -0.12830825 -0.07714014 0.07227215 0.10914587
000200 15 f8 26 bd 66 53 09 be 5b b0 ea 3d 73 ec 8f 3d
       -0.040763933 -0.1341072 0.114594184 0.07027521
000210 00 bc d0 3b 20 13 b4 bd 4e 5c cb 3a 29 75 a3 3e
       0.0063700676 -0.0879271 0.001551518 0.31925324
000220 c5 85 f4 3d 42 24 a4 3e f0 df 23 3e 35 0e b6 3e
       0.11939577 0.32058913 0.16003394 0.35557714
000230 a4 e9 9d 3e 1c bd a8 3e df 23 89 3e db ba 0a 3e
       0.30842316 0.3295678 0.2678518 0.13547842
000240 35 47 9d 3e 05 5b ac 3e 03 9a 94 3e 54 87 c6 3e
       0.3071839 0.33663192 0.29023752 0.38775122
000250 a6 f8 f7 3d 28 4c a9 bd 1e 75 67 3e 60 72 0a 3e
       0.12107973 -0.08266479 0.2260327 0.13520193
000260 1e 45 96 3e 16 57 39 3e 2c c9 39 3f 78 6d 90 3e
       0.29349607 0.18099627 0.7257259 0.28208518
000270 71 28 a6 3e 6e 2f be 3e 61 30 97 3e ba 38 ef be
       0.3245273 0.3714556 0.29529098 -0.46722966
000280 4b e6 74 bc b8 3e 47 3d 29 0f ce 3e 66 97 b3 bd
       -0.014947484 0.048643798 0.4024594 -0.08769111
000290 56 99 61 3e da 07 cf 3e e4 09 f5 3d cf 35 ec bc
       0.2203115 0.40435678 0.11964777 -0.028834252
0002a0 d4 97 de bc 1b cb 5b 3e b5 d6 35 3d 37 43 3f 3e
       -0.027172007 0.21464197 0.044394214 0.18677984
0002b0 3b 67 35 3e fb ab 11 bc bc c6 5c 3f 2f 65 9d 3e
       0.1771516 -0.008891101 0.86240745 0.3074126
0002c0 19 04 a3 3e a1 f8 8c 3e e6 81 c9 bd 69 55 c6 3d
       0.31839064 0.2753344 -0.09839229 0.096842594
0002d0 c5 6e 8c bc 8f 06 79 3e 8b 1f 9e 3e 08 a2 2a 3e
       -0.017142663 0.24318908 0.3088344 0.16663373
0002e0 cb e3 f9 3d f0 6f 4f be 11 00 da 3e 9e c8 74 bc
       0.12201651 -0.20257545 0.42578176 -0.014940409
0002f0 97 0c 9b bc dc 37 24 3e c3 f2 b2 3e e5 d1 0e 3e
       -0.018926902 0.16036934 0.34950837 0.13947256
000300 75 94 ae bd df 60 34 bd 75 14 90 bd 04 d3 5d bd
       -0.0852441 -0.044037696 -0.07035152 -0.05415632
000310 b6 cc e9 3d b9 85 b7 bd dc 2b 20 be 70 0d 40 3d
       0.11415999 -0.089610524 -0.15641731 0.046887815
000320 d1 1f fa bd 61 47 ac 3d 77 91 26 bd 2c c5 40 3d
       -0.122131 0.08412052 -0.04066607 0.047063038
000330 3d ca aa bd 1b 00 9d 3d 1c 28 93 bd 64 3b 24 3c
       -0.08339355 0.07666036 -0.07185385 0.010023925
000340 62 e2 e2 bd 68 7b aa 3d 94 de 76 3d d6 dd d8 3d
       -0.11078335 0.08324319 0.06027086 0.10589187
000350 dc 06 f2 bc 9f 52 b6 bb d0 23 f1 bd 0f b1 ec bd
       -0.029544286 -0.0055640484 -0.11774409 -0.11557209
000360 d5 f1 a7 3c 7c 12 7c bd 34 7a 02 3f 03 87 26 be
       0.020501057 -0.061541066 0.5096772 -0.1626244
000370 b9 c1 06 be c0 95 8f bd a8 08 8a 3d 07 e7 52 bf
       -0.13159837 -0.070109844 0.06739932 -0.8238377
000380 5f e9 d7 bd d3 bc 00 3e 16 ab c3 bd 91 5c ee 3d
       -0.10542559 0.1257203 -0.095541164 0.116387494
000390 e4 8a d4 3b ef 97 58 3d 10 8b 20 be a1 25 4e bc
       0.0064862836 0.05287927 -0.15678048 -0.012582214
0003a0 3f c6 87 be 13 fa 20 be 9f d9 1a bd 19 8a 42 3d
       -0.26518437 -0.15720396 -0.037805196 0.04749498
0003b0 67 b1 d2 bd ae 93 b7 3d b7 35 e5 3d 37 4d 6d bd
       -0.10287743 0.089637145 0.11191886 -0.057934966
0003c0 f1 64 2d 3d 26 00 a8 bd b3 0d f1 3c 41 96 43 3c
       0.042332593 -0.08203153 0.029425478 0.011937679
0003d0 a3 0d de 3d 20 15 3c 3d e2 c6 17 39 55 0a bf bd
       0.10842445 0.045918584 0.00014474572 -0.093281426
0003e0 e9 15 09 bc 6d c5 bb bd 79 f5 de bd 9d c7 83 bd
       -0.00836704 -0.09168515 -0.10886664 -0.064345576
0003f0 f3 b3 cb 3c 8b b7 12 be 12 22 25 be cf 9c d0 bc
       0.02486608 -0.14327829 -0.16126278 -0.025465397

fc2.bias f4 [32]
000000 fe 70 bb bd ec 80 74 3d 13 09 c5 3f 8f e3 67 3f
       -0.09152411 0.059693262 1.5393394 0.905816
000010 ea 35 2c 3f b6 34 df 3d 68 49 b4 3f 30 69 d7 bd
       0.67269766 0.10898726 1.4084902 -0.1051811
000020 10 83 11 bd fc 81 9f 3f 00 26 b3 3f 1d 4f 31 3d
       -0.03552538 1.2461543 1.3995972 0.04328834
000030 a0 5c 37 3f f4 b6 88 bc 17 51 58 3f 2b 33 bb 3f
       0.7162571 -0.016688801 0.84498733 1.462499
000040 6f 88 a9 3f 9b 36 10 bd 1c 42 9f 3d 94 60 b7 3f
       1.3244761 -0.035208326 0.07776281 1.4326348
000050 7a ac 91 3f 0c a6 82 bd 3c 56 3a bd 5a 4a 60 3f
       1.1380761 -0.06379327 -0.045492396 0.8761345
000060 4d 17 69 3f 56 aa 5f bd 3a c2 c4 bb 1e 8b 60 3f
       0.9105118 -0.054605804 -0.006004599 0.87712276
000070 cd fa 3c 3f b3 9e 82 3f a6 15 10 bd 46 b3 f6 3c
       0.7382019 1.0204681 -0.035176896 0.030114781

fc3.weight f4 [1, 32]
000000 67 12 17 bd e6 55 5d bd 32 17 97 3e 36 4b e2 3c
       -0.036882784 -0.054036997 0.29509884 0.027623754
000010 a7 74 30 3d bc 24 88 bd a1 08 9c 3e d8 9c 16 be
       0.04308 -0.066476315 0.30475333 -0.14708269
000020 32 d2 29 be f1 fd f9 3d b4 89 81 3e a8 aa 0f bd
       -0.1658409 0.122066386 0.25300372 -0.03507486
000030 b2 d4 fd bc 1d 39 e4 3a fc 69 c0 3b 69 f1 83 3e
       -0.03098521 0.0017412041 0.0058720093 0.2577012
000040 8d 47 71 3e 6d b0 34 bd 9f 67 ec bc 3b 69 37 3e
       0.2356245 -0.044113565 -0.028858004 0.17911236
000050 c4 15 89 3d b3 a2 a0 bd 3b 13 e7 bd ff 35 9b 3c
       0.066936046 -0.078435324 -0.11282965 0.018946646
000060 93 73 d4 bc 16 3c 18 be 56 e1 ec bd ef 2d 25 3a
       -0.025934016 -0.14866671 -0.11566417 0.0006301095
000070 30 5c d1 3c 35 ca 21 3a 81 f0 02 bd ac 91 78 bc
       0.025556654 0.0006171794 -0.031967644 -0.01517145
